initial_state_network_fine.pth (torch, 749875 bytes, 35 tensors)

xyz_encoding_1.0.weight f4 [128, 63]
00000000: f800 00bd 23e9 d33d e73a 35be 5a3e d4bd
00000010: d58a afbc c4b5 09bd 1b63 13bd 2e64 853d
00000020: f5dd 37bd 30f8 403d 81ab 17bd 0cbc 98bd
00000030: e393 1dbe c5c8 e6bd 71a3 17bd 7abf ac3c
00000040: 49dd 0fbd 7e6a 203e 55b3 37be 8c33 96bd
00000050: bbaa ca3d c274 933e 7cc8 3fbe 28c1 be3d
00000060: 3961 113e ef05 263d b4fb 6f3d 2ad0 2bbe
00000070: ba66 92be c4ac 95be d484 fabd 3f72 4b3e
00000080: 36b0 91be 64b9 e03c 6bcf 09bd ce3d 833d
00000090: 7ae0 83be 7812 293e bb64 313e 17b2 1cbc
000000a0: cca9 8a3d 8482 2cbe 2519 223e e720 70be
000000b0: ae2e bfbb b2a1 15bd 6220 093e c1a4 59bc
000000c0: 7bb6 f4bd 0e9b 363e eb01 24bc 1983 a6bc
000000d0: 2d55 ae3d 39bc 2f3c c3d4 2dbc 9507 5c3d
000000e0: 86d0 20bc f363 edba 4b56 82bb 0bcd efba
000000f0: bb57 daba 5e47 a83c 7b42 ccbb ba80 b23d
00000100: d55a ad3d 1dff 423c 6571 0c3d e99f 353d
00000110: 73d4 cf3d 2e1a c73d c20f 05be 6b8c d1bd
00000120: 9c1a 2f3d 8369 f73d bdc6 f13d a8a3 e13d
00000130: 98ee 0c3b 2d02 9bbe 7a87 2dbc 3a58 1dbd
00000140: 1793 75be e281 b93d 3da7 df3d b8b1 7abe
00000150: 0fe7 8d3d fc48 b93d df54 5ebd 2878 e6bd
00000160: 996b 1f3e 9b61 eb3d 7b96 4e3d a1fc 0f3e
00000170: c61e 9e3c e970 7e3d cab2 adbd 6add bcbc
00000180: 59d9 893d a9a7 aa3d 94c8 e6bd ad1a 83bd
00000190: 2015 783e 56c7 7a3e 0aa6 34be 142c 893d
000001a0: 71ff 003e daee b2be 3dfc f3bd 3ae4 513e
000001b0: b96a 6d3c f603 0bbd eb21 31bc 82d7 52bd
000001c0: 155f b6bd 72ad f3bc 9e08 a0bc b6f2 9ebc
000001d0: 9d18 b13c ecea 6bbb a429 813d aac8 1f3b
000001e0: 44fb 3b3a 79d4 ba3b 955a c53a b9e9 aa3b
000001f0: 4c32 4f3c d81c 8d3b 91f0 d4bd 0a84 20be
00000200: cbd5 e9bd 47cd 1fbe 391b 01be 12ca 21bd
00000210: 9bc4 51bd 684a d63c 9e9c 043e 3674 16bd
00000220: 9ec2 d8bd c141 8fbd 6ba2 1e3c e9ea cb3d
00000230: 4e41 413e 83fa 163e ee9d cbbb 7e0e 9fbd
00000240: 53a0 02bf 7892 c6bd 5e20 3c3e f479 283e
00000250: d7f4 03be 284c c8bd 95e8 86bd 79cc 68be
00000260: 1d8a b13d 8500 723c 80b5 edbd 7a73 efbe
00000270: 92d9 cf3c 9d62 35be b8b2 fbbc fe43 8f3d
00000280: 5574 e4bd 2819 173e 3449 c1be 79b7 d7bc
00000290: ac2d 3fbe da4c 003d 02d8 14bd 472f dfbc
000002a0: 5088 c0bc 8777 0ebd 3d7e 59bc 2106 4a3d
000002b0: 8efd babd 1687 aa3c 9219 f83b 9a79 d03d
000002c0: b4a0 a13b d1b7 63bc d965 3fbc fa9b bd3b
000002d0: 21e0 e33c 08a9 013d 4546 b6bb 979b 603a
000002e0: e794 6cbb 6aaf 82b9 4009 ff38 5d80 4e3b
000002f0: f95c 773b 8fb0 77bd 3de6 783d a3ea a73d
00000300: b1c9 5cbe a952 05bd ee64 bdbd 4e24 99bd
00000310: dc1e b5bd 76cf 8a3c c4db 43be 590c 21bd
00000320: 0b3f c13a 7449 be3d ba79 d4bd 84dc 17be
00000330: bf7f 1ebe d9e0 453d 33e9 a6bd 97fc d53d
00000340: 2ef7 5b3d d085 803d d549 d2bd 557c a8bd
00000350: 5ae3 473e 6cd4 033d 9605 063d be31 41bc
00000360: 5a59 4dbe 4ef6 44be d379 903c c45e 5ebd
00000370: 4b65 4bbe 8a73 fc3e 6055 42be bea0 413e
00000380: 2af0 9ebe f08c e13c 3883 8dbe 93db cf3a
00000390: 15fd b1bd a786 c8bd 989f 27bd 7eb3 a7bc
000003a0: 4866 093e 8350 0f3e c095 e3bc 8ca1 63be
000003b0: 53d9 8b3d 8b0e e63a f0d0 8dbd 93fd 3eb9
000003c0: c99f b0bb 522b 2abc e003 333c 3fbb 793c
000003d0: f51c 093e d9a4 bf3a b002 813b 3df9 cc3b
000003e0: 863c fbba e710 ba3b eb83 a3bc 1f34 b53a
000003f0: 2aab 583e c1da a23c 2c99 73bd f3ef 583d
-0.031250924 0.10347202 -0.1769825 -0.10363455 -0.021428505 -0.03362061 -0.035983186 0.065132484
-0.04488941 0.04711169 -0.037028793 -0.07457742 -0.15388446 -0.112687625 -0.037021104 0.021087397
-0.035123143 0.15665624 -0.17939503 -0.073340505 0.098958455 0.28800017 -0.18728822 0.093141854
0.14197244 0.040533002 0.058589652 -0.16778627 -0.28594 -0.29233372 -0.12232366 0.198678
-0.2845475 0.027432151 -0.033645075 0.06408273 -0.257572 0.16510952 0.17323582 -0.009563944
0.067706674 -0.16846663 0.15829904 -0.23450051 -0.005834422 -0.036531158 0.1339126 -0.013283909
-0.11948868 0.17832586 -0.010010223 -0.020326184 0.0851234 0.010726028 -0.010609808 0.05371817
-0.009815341 -0.0018111452 -0.003977572 -0.001829536 -0.0016658226 0.020541843 -0.006233511 0.08715959
0.084645905 0.011901644 0.03428783 0.044341955 0.10147943 0.0972179 -0.12994292 -0.10231861
0.042749986 0.12080672 0.118054844 0.11017543 0.0021504518 -0.30275097 -0.010591382 -0.038414218
-0.23981892 0.09057976 0.1092057 -0.24481857 0.069288366 0.09047124 -0.054280158 -0.11253387
0.15568389 0.11493226 0.050436478 0.14061214 0.019301783 0.0621194 -0.08481367 -0.023054797
0.06730909 0.0833276 -0.11268726 -0.064015724 0.24226809 0.24490103 -0.17641464 0.0669786
0.12597443 -0.34947854 -0.11913345 0.20497218 0.014490777 -0.033939324 -0.010811309 -0.051475056
-0.08904854 -0.029745791 -0.019535359 -0.019402843 0.021618182 -0.0035998179 0.063067704 0.002438108
0.00071709254 0.0057015982 0.0015056903 0.00521585 0.012646269 0.004306417 -0.10397447 -0.15675369
-0.11417731 -0.15605651 -0.12608041 -0.03949935 -0.05121289 0.026158527 0.1295037 -0.03673192
-0.10583995 -0.069949634 0.009682278 0.09956915 0.18872568 0.14744 -0.006213895 -0.07766436
-0.51025885 -0.096959054 0.18371722 0.16452771 -0.12886368 -0.09780151 -0.0658733 -0.2273425
0.08668921 0.014770632 -0.11606884 -0.4676779 0.0253723 -0.17713399 -0.030724868 0.0699539
-0.11155001 0.1475569 -0.37751162 -0.026332604 -0.18669766 0.03132329 -0.036338814 -0.027244223
-0.023502499 -0.03478196 -0.013274726 0.04932225 -0.09130393 0.020816367 0.0075714076 0.10179444
0.0049324874 -0.013898806 -0.011681997 0.005786416 0.027816834 0.03165534 -0.005562576 0.00085681066
-0.0036099495 -0.00024926226 0.000121610705 0.0031509616 0.0037744625 -0.060471114 0.060766447 0.0819905
-0.21561314 -0.032549534 -0.092477664 -0.07477628 -0.088437766 0.016944628 -0.19126803 -0.039318416
0.001474352 0.09291354 -0.1037478 -0.14830214 -0.15478419 0.048310135 -0.08149948 0.10448568
0.053702526 0.06275523 -0.102679886 -0.082268395 0.19520321 0.032185003 0.03272017 -0.011791645
-0.20053616 -0.19234583 0.017636215 -0.054289594 -0.19862859 0.493069 -0.1897788 0.18908975
-0.31042606 0.027533025 -0.27639174 0.0015858285 -0.0869085 -0.09791308 -0.040923685 -0.02047133
0.13417923 0.13995557 -0.027781367 -0.22229594 0.06828561 0.0017551942 -0.06924617 -0.00018214276
-0.0053901416 -0.010386305 0.010926217 0.015242397 0.13389952 0.0014621272 0.003937088 0.0062552975
-0.0019167818 0.0056782844 -0.019960364 0.0013824737 0.21159044 0.0198797 -0.059472248 0.05296321

xyz_encoding_1.0.bias f4 [128]
00000000: 7d34 fe3c 7dfc ccbd 7836 103e 6ddb 4cbd
00000010: 0b50 efbd f53d a23d 18e1 eebd 22b7 1ebe
00000020: b46a adbc d5db c13d 9a1e 9abd eee9 1d3c
00000030: 5bf2 00be a1b5 5b3d 394f 9039 4961 68bc
00000040: f328 46be b11f debd 5a8b cf3c 365a b9bc
00000050: 742a d4bd dd04 7f3d 77dc c23c 218f e1bd
00000060: 6632 a6bc cc1f cfbd 82e2 463d 6f2e f7bc
00000070: 9171 d33d 15cd b43d cee3 bbbd 87c9 de3d
00000080: 0bfc e6bd 594f f0bd 4015 e13c 1928 dabd
00000090: 4bab cbbd e37d e1bd 9c74 22be 5588 47be
000000a0: 56ef 9a3c 3008 10be cc52 c0bd b8f9 343d
000000b0: a6d3 2abe d49d b43d d555 833d 226c a2bd
000000c0: f0a6 9c3a b538 2abe d394 e03d 3af3 843c
000000d0: 3b15 aabd 0ac9 a93d 4b81 22be e399 a0bd
000000e0: b4d5 a43d d415 03be a0f5 2ebd 2f3e eabd
000000f0: dd86 24be 5ddd e2bc bc61 40bd a3c9 07bc
00000100: 0ba9 3fbc d67a 0e3d 2230 c6bc 4b01 d0bd
00000110: f4ef 8b3d 4787 413d 94b9 40bd 2026 7bbc
00000120: 9f85 f5bd 08d9 1d3d 8b4e 2abd 83a1 d23d
00000130: 6f8a c9bd bf82 c0bd 2c53 bf3d 7eea 82bc
00000140: c624 0fbe b1e3 3a3d 9fc9 293d 9516 f23c
00000150: 9876 11be e814 343d d79f 1f3c d148 163d
00000160: 45a4 a23d 39e3 9c3d beb9 7f3d 720d f5bd
00000170: 66af 19be fedc 983a 6f37 d3bc 16f5 4bbd
00000180: d27b ddbd 9b14 a1bc 12b1 20bc dd76 1f3c
00000190: 7366 4b3d bb35 b03c 96b0 8f3d e711 46bd
000001a0: 201b 993d ef0c 13be 2f9b 3abd 79e9 d8bd
000001b0: aafe 6c3d 5d45 d9bd 5aeb edbd 2fc0 2dbd
000001c0: 024b f5bc b6bd ea3d 936d 3fbd 0b4e 1abe
000001d0: 4b83 a2bc ed84 d9bd a4aa bebb 58d9 4b3d
000001e0: 871e 84bd a14e 0c3e 7d59 fd3c 2434 343d
000001f0: 37cb 57bd 324f 9c3d 5f2a 243c d34c 84bc
0.031030888 -0.10009096 0.14083278 -0.05001395 -0.11685189 0.079219736 -0.11664027 -0.15499547
-0.021169044 0.09465758 -0.07525368 0.009638293 -0.12592451 0.05364001 0.00027524846 -0.014183351
-0.19351558 -0.108458884 0.025335003 -0.022626024 -0.1035966 0.062260497 0.023786766 -0.11013628
-0.020287704 -0.10113487 0.04855586 -0.030173508 0.103243954 0.08828179 -0.0917431 0.10878282
-0.11278542 -0.11733884 0.027475953 -0.10652179 -0.09944781 -0.11010339 -0.15864795 -0.194856
0.018912952 -0.14065623 -0.09390792 0.044183463 -0.166823 0.08819166 0.064128555 -0.07930781
0.0011951607 -0.16623195 0.10965886 0.01622926 -0.08304831 0.08290298 -0.15869634 -0.078418516
0.08048573 -0.12801296 -0.042714715 -0.11437642 -0.16067071 -0.027693445 -0.046968207 -0.00828782
-0.011698018 0.034785114 -0.024192873 -0.101564966 0.06832877 0.04724815 -0.04705198 -0.015328914
-0.11988377 0.038537055 -0.04157881 0.10284712 -0.09840857 -0.09399938 0.09342036 -0.015980955
-0.13978872 0.0456273 0.041452046 0.029551784 -0.14205396 0.04396525 0.009742699 0.036690537
0.07941488 0.07660527 0.062432997 -0.11965455 -0.15008315 0.001166254 -0.025783269 -0.04979428
-0.108146325 -0.019663146 -0.009807842 0.009732929 0.04965825 0.021509996 0.07016103 -0.048356917
0.07475877 -0.14360403 -0.04555815 -0.105914064 0.057860054 -0.10608933 -0.116171554 -0.04241961
-0.029942993 0.11461966 -0.046735357 -0.15068834 -0.019837996 -0.10621057 -0.005818682 0.049767822
-0.06451135 0.1370187 0.03092646 0.043995038 -0.052684035 0.07632293 0.010019868 -0.016149914

xyz_encoding_2.0.weight f4 [128, 128]
00000000: 6054 723e dbf9 9dbd 7072 243d a149 603c
00000010: 0b84 5cbe bc48 9bbd f5f9 cfbd 7576 2e3e
00000020: 790c 79be fe44 813d 6e68 e9bd 995b 52be
00000030: 836b d8be bbf2 68be 7d56 36be 47f5 013c
00000040: 67a8 a7be 43f5 a5bd 9bee 5bbd 5b44 c2bd
00000050: f84a 463d 77c0 b5bd e79b 13be 1469 52bc
00000060: 1e3c c9bc f11a 503d 19cc c93d 1354 77bd
00000070: f1e3 c8bd 0218 22be b2fe 42be f0a5 bbbc
00000080: 5862 8ebe 4a55 e73d a1b1 cb3d 0d69 383d
00000090: 4358 fabc 79b9 13be 484f 4dbd 82b5 383e
000000a0: 2275 6fbe ae67 893d 245a a1be 6862 b43d
000000b0: 27e3 c4bc ae05 51be 850a 04bd 623c d93d
000000c0: 0d99 70bb 0f34 8ebe 1090 93bd 9cf4 5a3d
000000d0: c273 6abe eb9c b7bd 9356 a3bc 0aef 44be
000000e0: b28e 40bc 9323 09be 9052 2d3d 18aa d4bd
000000f0: 61d2 73be c313 e63d 485a d9bd f4a4 333e
00000100: 1e45 77be 73c3 0b3d 698f f63d b260 83be
00000110: 9db3 d3bd 1918 7fbd 622f da3c 0961 3d3e
00000120: 94bf 3f3d 97dc e5bd 475d a63d 4b9c 603c
00000130: 85a8 5a3e 1f99 9c3c 8d97 82be e514 5cbd
00000140: ffce 2dbe c7b4 a23d bc1f d9bd 1069 533d
00000150: 22a4 083e 0051 b6bd 6b15 96bd 38be 0abd
00000160: d008 d13c b753 653e a656 33bd a3a3 bc3d
00000170: a3aa 883c 1acb 5abe c8f0 133e 2cf6 b7be
00000180: 1e74 4dbd 5b64 9fbe eb19 08bd cce1 bb3d
00000190: e77c c0bd 7b04 ebbd 7fe2 3dbd 54be efbe
000001a0: e1c2 733e 3fca 583d 05c7 b7bd 8369 a03d
000001b0: 83e7 2e3d 3f4f 853d d76c 6bbd 61f2 ad3d
000001c0: da3c 02be 8382 8d3d 1988 dd3d e7cf 2b3e
000001d0: 6d79 31be 7056 003e d222 d93d 19ec 54be
000001e0: d99f 623e 0991 a7bc 847e 7e3d 1189 9bbc
000001f0: 9127 563e f950 1a3e 069b 123e 3aa9 35be
00000200: f58f 90bd 394e 0abd 2dc3 533e f186 0b3e
00000210: f6fd 6c3d e8f6 8ebe 5e39 973d 964f 86bd
00000220: 2350 013d 3b51 d33d 6abc 843c ac92 8f3e
00000230: f740 4c3e 04d2 71be 2d5f bc3d aed0 41be
00000240: df72 873e b8d4 8d3d 8aad 043e c46b 4a3e
00000250: c841 9e3d f6b4 4ebc 707d 08be 2c16 ffbd
00000260: d57c 043e 16f5 ec3d d49f e2bc 028f 93bc
00000270: 27b7 993c 02f5 35bc c836 013e e32e 1abe
00000280: d04f f73d 91f3 c5bd 1ed7 d93d 8410 7b3e
00000290: 6861 92bd 3d8e 58be b1d8 06be e5d2 353e
000002a0: 6b0e 5f3d 9750 773d c542 fdbc c9cd 85bc
000002b0: 1c4c 103d a29b 0abe 2790 e13d cfbc 14bd
000002c0: c4c7 043e a77d 603d 6f92 b3be 3b64 eabc
000002d0: 9c50 f93d 3e26 c5bd 792c b9bc b61a 86be
000002e0: f7c8 d1bd 7644 283c fba2 cd3d 129b 723c
000002f0: ea9b 093e f5a2 f9bc e972 15be cbe1 debe
00000300: 03ea 92bd 7238 39be 721c 17be 35c5 5dbe
00000310: ba3f b83d 7dfa f5bc 4ac5 d9bd 21fe 44bc
00000320: 3731 babe 13ab 263d 6d4f 0dbd 174f b53d
00000330: 6857 27bd b4b3 53be 1945 97be 6885 c43c
00000340: b865 2e3e 58ab f53c 1456 96be ac10 cbbc
00000350: 3402 0dbd 011b 05be d419 8ebd 2265 cbba
00000360: 3380 e43d 1c60 2cbe 6bc9 83bd 931e fc3b
00000370: 430f d2bd a0bf c63d d473 eb3c 7a6e 0fbd
00000380: fa96 ea3c 59ce 393e eaf0 953d b140 1fbe
00000390: dbc1 163e 26e1 8a3d 7add 163d b928 a5bc
000003a0: 6c81 04be b630 59bd d202 49bd 3dc4 e33d
000003b0: 0eef d03c 60b1 833d c593 603e 9994 85bd
000003c0: 9122 a5be 2c41 163e 1e8f 8d3d 0657 0abe
000003d0: 9ac3 333e de0a 9e3e c08a 2bbd 5720 843d
000003e0: c3c4 bbbc 782c 47be 86df 903d 6355 243e
000003f0: 4825 c3bd 6bcb 4c3e fa7d 5cbd a90d 15be
0.23664999 -0.07713672 0.0401482 0.0136894295 -0.21534745 -0.07582232 -0.101550974 0.17037375
-0.24321164 0.06311987 -0.113968715 -0.20542754 -0.42269525 -0.22748844 -0.1780643 0.007932014
-0.32745668 -0.081034206 -0.05369435 -0.09485694 0.04841134 -0.088746004 -0.14414941 -0.012842435
-0.024564799 0.050806943 0.09853382 -0.060382914 -0.098091014 -0.15829471 -0.19042471 -0.022906274
-0.27809405 0.112955645 0.099459894 0.04502206 -0.030559665 -0.14426221 -0.050124437 0.1803799
-0.23384526 0.067092285 -0.31514084 0.08807832 -0.024034096 -0.20412323 -0.032236595 0.1060722
-0.003671232 -0.27774093 -0.07205212 0.053455934 -0.2289572 -0.089654766 -0.019938743 -0.19231811
-0.011752771 -0.13392477 0.042315066 -0.10384005 -0.23810722 0.11234238 -0.10612923 0.17543393
-0.2414746 0.03412194 0.12039072 -0.2565971 -0.10336993 -0.06227884 0.026633922 0.18494047
0.046813563 -0.11223715 0.0812326 0.013709138 0.21353348 0.019115983 -0.2550625 -0.053730864
-0.16973494 0.07944637 -0.10601756 0.051613867 0.13343862 -0.08902168 -0.07328304 -0.033872813
0.025516897 0.22395216 -0.043783806 0.09210899 0.016682928 -0.2136654 0.1444732 -0.35930002
-0.050159566 -0.31131253 -0.033227842 0.09173927 -0.09398823 -0.11475464 -0.04635858 -0.46824896
0.23804809 0.052927252 -0.08973507 0.07832625 0.042701256 0.065092556 -0.057476845 0.08493496
-0.12718526 0.06909659 0.10816974 0.16778527 -0.17331477 0.12532973 0.106023446 -0.20793189
0.2213129 -0.0204549 0.062132373 -0.018986257 0.20913531 0.15069951 0.14316949 -0.17740336
-0.070587076 -0.033766005 0.20679922 0.13625695 0.057859384 -0.2792275 0.07383989 -0.065581486
0.031570565 0.10318228 0.016203124 0.2804159 0.19946657 -0.23615271 0.09197841 -0.18927261
0.26454827 0.069253385 0.12956825 0.19767672 0.077273905 -0.012616387 -0.133291 -0.12455401
0.12938245 0.11570184 -0.027664103 -0.018012527 0.018764092 -0.011105778 0.12618554 -0.15056948
0.1207577 -0.09665597 0.106367335 0.24518019 -0.07147485 -0.2114801 -0.13168599 0.17756231
0.05445711 0.06037959 -0.030915627 -0.016333478 0.035228834 -0.13535932 0.11013823 -0.036312874
0.1296683 0.05480733 -0.35072657 -0.028612247 0.12173578 -0.09626435 -0.022604214 -0.26192254
-0.10243409 0.010270229 0.10040852 0.014807479 0.13438383 -0.030473212 -0.14594616 -0.4353164
-0.071735404 -0.18087938 -0.14756945 -0.2165726 0.0899653 -0.030026669 -0.10633333 -0.01202348
-0.36365673 0.040690493 -0.034499574 0.08852976 -0.04085484 -0.2067402 -0.29544905 0.023989394
0.1703099 0.02998893 -0.29362547 -0.024788223 -0.03442593 -0.12998582 -0.0693852 -0.0015517811
0.111572646 -0.16833538 -0.06434902 0.0076940744 -0.10256817 0.09704518 0.028741755 -0.035017468
0.028636444 0.18145122 0.07321341 -0.15552022 0.14722387 0.06781225 0.03683231 -0.02016102
-0.12939996 -0.05302497 -0.049074955 0.11121414 0.025504615 0.06430316 0.2193137 -0.065224834
-0.32252935 0.14673299 0.06912063 -0.1350976 0.17555085 0.30867666 -0.04188037 0.06451481
-0.022920972 -0.19450557 0.07073884 0.16048197 -0.09528595 0.19999473 -0.053831078 -0.14555992

xyz_encoding_2.0.bias f4 [128]
00000000: dde5 75bd 74f8 39bd 85db 87bd 90c5 ba3c
00000010: b3fb b8bd f901 60bd 2594 993d 7a78 1bbc
00000020: 1a4a 1c3d 2ca7 cb3d 6aeb 0cbd eb4e 37bd
00000030: d937 5abd 257c 103d c56f 183d 527a 643d
00000040: 4f4d 953d a552 a3bd 0cdd bd3d 2168 54bd
00000050: 29a7 f33c 6bea 5dbc 3839 803d e480 5f3c
00000060: 391c 0b3d 25e7 4abc 11c8 54bd 120c 5f3d
00000070: b1d0 adbd 7188 8c3d a329 bb3c 804d 7fbc
00000080: 2924 6abd ab96 9bbd 66a0 79bd 3961 d3bd
00000090: 0d79 243d 3138 bbbd 9a88 84bd b1a4 eebb
000000a0: 4982 933d cb91 14be 527a 3f3c be36 bf3b
000000b0: a453 943d fd28 e5bc 814d 4b3d a067 713d
000000c0: 9feb 8b3c 297d 8b3d 3aa4 0c3d a96f 36bd
000000d0: 2c03 67bd cefa 393d 41f5 7ebc 5e67 75bc
000000e0: a774 0b3d 36ab d6bd 093e 3bbc bd97 bcbd
000000f0: 30de 4dbd 7f8b b3b9 d856 4ebd 26ea 72bd
00000100: f4c0 6ebd 10ab 6b3d f995 493d d721 693d
00000110: e5a1 80bd 88e8 9cbc a89a 40bd 3b1b 80bd
00000120: c27c a0bd a4f0 93bc 4a3a 36bc ba1f 80bc
00000130: 69d2 b4bd f0b3 02bd 6dae 8bbd 697a 0b3d
00000140: d505 783d 85f9 d23c 0ba7 963c c7fe 8d3d
00000150: 1aac 5fbd 67ef b33d 2512 a4bd fba4 babd
00000160: 4091 893d 3216 b03d 5e66 c9bd d8e9 0e3d
00000170: 9a43 543d df66 e1bc c0b7 84bd 96af c1bb
00000180: 2e1d 3fbd 9673 6cbd 9ed8 d3bd f42f 9abd
00000190: 3f78 873d a36c be3c 8ed2 073d 4fde 83bd
000001a0: 3953 5dbd 2eef b2bd 33ba 6ebc 2508 8a3d
000001b0: 50e7 853d ef8e 9ebd e398 7bbd 760e 143d
000001c0: cdeb 74bd f5f9 5b3d 945c 9ebd 28de 113b
000001d0: 68dd 83bd 2756 e4bc 776f 0c3d 5693 0fbd
000001e0: 0b1a debd 94d2 ecbd fe6f 43bd 938a ebbd
000001f0: 9174 a2bd 292a 903d 5fb4 e1bd e978 c73d
-0.060033668 -0.04540296 -0.06633667 0.022799283 -0.09032383 -0.05468938 0.074989595 -0.009489173
0.038156606 0.09943995 -0.034404196 -0.044752996 -0.053275917 0.035274643 0.037215967 0.055780716
0.07290136 -0.079747476 0.09270677 -0.051857118 0.029742794 -0.013544659 0.062609136 0.01364157
0.033962462 -0.012384211 -0.05194861 0.05445487 -0.0848707 0.06861962 0.022847002 -0.015582442
-0.05716339 -0.07597097 -0.060943983 -0.10321278 0.040154506 -0.09141577 -0.06471367 -0.0072828163
0.07202584 -0.1450874 0.011686878 0.005835383 0.07242516 -0.027973646 0.04963446 0.058936715
0.017080126 0.06810982 0.034336306 -0.04454008 -0.05639951 0.0454052 -0.015561403 -0.014978258
0.034046795 -0.10481875 -0.011428365 -0.09208629 -0.050260723 -0.00034245473 -0.05037579 -0.059305333
-0.058289483 0.057536185 0.04921529 0.056917038 -0.06280879 -0.019153848 -0.04702249 -0.06255194
-0.07836296 -0.018059082 -0.011122296 -0.015640128 -0.08829195 -0.031909883 -0.068203785 0.034052286
0.060552437 0.025753746 0.0183902 0.069333605 -0.05460749 0.08785897 -0.08011273 -0.09113499
0.06717157 0.085979834 -0.09833978 0.03489098 0.051822282 -0.027514873 -0.0648036 -0.005910824
-0.046658687 -0.05772742 -0.10344051 -0.075286776 0.06614732 0.023245161 0.033159785 -0.064388864
-0.054034445 -0.08737026 -0.014570761 0.06739835 0.0653826 -0.07742106 -0.0614251 0.036146604
-0.05979519 0.053705174 -0.077325016 0.002225766 -0.06438714 -0.027873112 0.03428599 -0.03505262
-0.10844811 -0.11563602 -0.047714226 -0.1150104 -0.079323895 0.070392914 -0.11020731 0.09739859

xyz_encoding_3.0.weight f4 [128, 128]
00000000: 5384 9abe bf40 333d c27a 293e 9f2a 853d
00000010: 4911 bb3d 6efb 643e 9bc0 2a3d 9178 723d
00000020: e209 6a3e 04f9 d23d 2017 143e 584e 393d
00000030: b634 28be f00e eabd 56e3 fbbd 05fd 8ebd
00000040: 015c a43d bab9 713d a128 11bd 5a52 a2bd
00000050: 8e83 00bf 2ee2 a5b9 cf64 1ebd f4c6 c5bc
00000060: a9a7 8b3d 5376 b83d 54bf 143e fcb1 f63d
00000070: 3762 28bd fbca e2bc 6a92 403d 7481 1ebd
00000080: b016 2e3c 50ed debe 2d6d 8d3d c709 febd
00000090: e358 b1be ad13 6dbe c20f 0cbe eada 0ebe
000000a0: f74a bbbc 7e08 3ebd 00fd 8fbb e9d2 5fbe
000000b0: 33a4 633e 7e56 953d 7ffa 353e 7f52 7a3d
000000c0: 3274 82bd 53ff 153e 1a9f f6bd a597 2cbf
000000d0: 518c 6f3d 5fcb dcbd 3dea 3d3d 6ed9 283e
000000e0: 30d6 f5bc 910b 00be faff d8be 3ff1 9bbb
000000f0: ccd1 30be f0c3 fdbd 8c32 a3be ea93 a03d
00000100: db22 173e cf88 acbe e766 36bd aff0 2e3d
00000110: 837b 973d 84f1 adbc 889b 0a3d 7236 4abe
00000120: e731 f53d 7d67 93be be5d 2f3e eb8d 223d
00000130: cec4 aebc 3067 273d e70f 1d3e 6f63 7e3d
00000140: 6b39 02bd a431 1abd c271 583e b300 d5be
00000150: 56cd 8d3d b91f 273e 6316 5e3e c580 d33d
00000160: de7b 4ebd 24ad ce3d 404a 843d 973b 3dbd
00000170: 12ca 14be a8c1 46bc aecc 023d f1cb 8a3d
00000180: eb5d 0ebe e0e2 d1bd b9bc 58bf 02dd b63d
00000190: 67dc fabd 2ab7 d5ba aaa8 c7bd 53d6 f8bd
000001a0: 8a47 3bbe 8e3d 333d dd9b 8bbb 3dfd 55be
000001b0: a516 053d 631e 3a3e a513 063e d692 56be
000001c0: 0f63 6dbd 74fd 72bd 290f 37be 4b3e 8dbd
000001d0: e008 30bc 3dfb 91bd fa93 6c3d 0437 823d
000001e0: 29ac 8e3e 3736 093e 3279 823e e5a3 6e3e
000001f0: 5394 1a3e dc43 be3d 4c2f 0e3d ae7b 99be
00000200: 8da5 d1bc dc31 cb3d 4728 6fbe 4eb6 ecbd
00000210: b166 8abd a91a 193d a71b b63d 38c7 bcbd
00000220: be42 59bc 3da9 263e e3fe 58bd dd6c 663d
00000230: 0381 f9bd cb23 e2be fa9a 103e 0aeb 303d
00000240: 787d 00bc 8cbd f5bd 65b8 fdbd 02f5 5abd
00000250: 2538 833e 5b35 fcbd a520 af3d 9da6 aabd
00000260: db74 96bd ab87 3e3b a1c3 1c3e baca 953c
00000270: 06d6 78bd 50c1 fdbc fd20 a4bd a759 063e
00000280: 036a 293d f8e0 1d3a 645c 393e 14c3 843c
00000290: 0a31 683e 285c ff3d ee20 96bb 7025 f1bd
000002a0: 6956 3c3d e779 c6bd ed35 013e e207 c4bc
000002b0: b519 0c3e c9f8 08be 6afa b1bc 6462 403d
000002c0: de8f 0a3d d4ce b23c e543 0cbe 2b75 b4bd
000002d0: 44a4 4d3e cc1d 8b3d 68ae 8a3e 6879 0abd
000002e0: e21b b43d 0d77 23bb 5f3c 0bbd 9fb8 97bd
000002f0: 13aa 5bbe 9810 de3d ffdb a63e 618b 4d3e
00000300: 9179 a73d f491 cbbd 6ae7 9d3d 5f5d 3b3e
00000310: 92f9 2dbd 84c2 263e dc42 253e fee7 8bbd
00000320: 77ab 353e d9c4 02be 0da5 6bbe f96f 813e
00000330: eca4 0ebe 104b 46be a2cf e43c 1e57 cbbd
00000340: 7409 5abe 7308 97be 42b6 3c3d 7009 063d
00000350: ea76 6abd 495f babe 2bce b63c 2d64 443e
00000360: 5299 963d 6468 7dbd a1a8 7a3d de59 46bd
00000370: e798 07bd 4c75 6abe d466 573e 8759 893e
00000380: bf82 643d 9928 afbd d32d b2be d8a7 163d
00000390: dc4d c7be d1c0 933d b12a a6bc f3fd 3a3e
000003a0: 4bc5 7dbe af5b b8bd 58fb 2bbc ef35 a13d
000003b0: 76d5 b1bd 7ae3 63be 44ba 0a3b 2ac9 023e
000003c0: 4b97 093d 76a1 b6bc 98cf 523e 5982 9e3d
000003d0: 4b12 9e3d 7628 d5bd e881 adbe 47bb 87bd
000003e0: a60e 8bbe c768 d63c 841c c33a e44b 653c
000003f0: 1ba6 a13c c577 0f3c 870e 313e 044e 0d3e
-0.3017908 0.04376292 0.16550735 0.0650227 0.09134156 0.22361538 0.04168759 0.059197012
0.22855332 0.10301402 0.14461946 0.04524073 -0.16426358 -0.1142863 -0.1229922 -0.069818534
0.08025361 0.059015013 -0.035439137 -0.079258636 -0.50200737 -0.0003163977 -0.038670357 -0.02414272
0.06819088 0.090069436 0.14526111 0.120456666 -0.04110929 -0.02768468 0.04701463 -0.038697675
0.010625526 -0.4354043 0.06905589 -0.12404209 -0.34638128 -0.23152037 -0.13677886 -0.13950697
-0.022862894 -0.046394818 -0.0043941736 -0.218578 0.22230606 0.07291888 0.17771338 0.06111383
-0.06369819 0.1464818 -0.12042065 -0.6741889 0.058483426 -0.107809775 0.046365965 0.16489193
-0.03000936 -0.12504412 -0.42382795 -0.0047589834 -0.17267531 -0.12390888 -0.31874502 0.07840712
0.1475939 -0.33698127 -0.04453173 0.042710003 0.07396605 -0.021233328 0.033839732 -0.19747332
0.11972409 -0.28789893 0.17125604 0.039686125 -0.021334078 0.04086989 0.15338098 0.062106546
-0.03179304 -0.037644997 0.21137145 -0.41602096 0.0692393 0.16320695 0.21688227 0.10327295
-0.050411098 0.10091618 0.064594746 -0.046199407 -0.14530209 -0.012131132 0.03193348 0.0677718
-0.13903014 -0.10248351 -0.8466297 0.08928873 -0.1224907 -0.0016305197 -0.09748967 -0.12150254
-0.18289009 0.043759875 -0.0042605237 -0.20897384 0.0324923 0.18175654 0.13093431 -0.20954451
-0.057955798 -0.059323743 -0.17876877 -0.06896647 -0.010744303 -0.07127998 0.05775831 0.0635815
0.27865723 0.13399588 0.2548309 0.23304708 0.15095644 0.09290287 0.034713075 -0.29977173
-0.025591636 0.09921619 -0.23355208 -0.11558209 -0.06757868 0.03737894 0.08891993 -0.092176855
-0.0132605415 0.16275497 -0.052977454 0.056256164 -0.1218281 -0.44167933 0.14121619 0.0431929
-0.007842414 -0.11999044 -0.12388686 -0.053456314 0.25628772 -0.12314864 0.08551148 -0.0833256
-0.07346507 0.0029072564 0.15309002 0.018285144 -0.060750984 -0.030975968 -0.080141045 0.13120137
0.041360866 0.00060225977 0.1810165 0.016206302 0.22674957 0.12468749 -0.0045815622 -0.11774719
0.045980845 -0.0969122 0.12618227 -0.02392954 0.13681681 -0.13376154 -0.021725852 0.046968833
0.03382861 0.021827139 -0.13697775 -0.088114105 0.20082194 0.06792793 0.27086186 -0.03380719
0.08794381 -0.0024942786 -0.03399312 -0.074082606 -0.21451597 0.10843009 0.3258972 0.200727
0.08177484 -0.09939948 0.07710154 0.18297337 -0.042474337 0.1628514 0.16138786 -0.068313584
0.1774119 -0.12770404 -0.2301218 0.2528074 -0.139301 -0.19364572 0.027931038 -0.09928726
-0.21292669 -0.29498634 0.046072252 0.032723844 -0.05724231 -0.36400822 0.022315105 0.19178839
0.07353462 -0.061867133 0.061195973 -0.048425548 -0.033104803 -0.22896308 0.2103532 0.26826116
0.05578875 -0.08552665 -0.34800586 0.036781162 -0.3892659 0.07214511 -0.020284029 0.18260936
-0.24782293 -0.09001862 -0.010496937 0.07871615 -0.086832926 -0.22254744 0.0021168152 0.1277205
0.03359155 -0.022293787 0.20587003 0.077397056 0.07718333 -0.10408108 -0.33888173 -0.06627517
-0.27159613 0.026173009 0.0014885818 0.0139951445 0.019732526 0.008756583 0.17290698 0.13799292

xyz_encoding_3.0.bias f4 [128]
00000000: cbe7 273c e690 9dbd 9c93 d2bc da9a 803d
00000010: 1c9c d63c 4f7c 26bd b3d4 1abd d466 253d
00000020: 6477 483d 861f 41bd 95e5 1bbd cd6e 4fbd
00000030: 303b 5fbd a59c b73d fb00 1fbb 8e6d 073d
00000040: a693 e23c 54b2 90bd 91f5 27be 725c c9bd
00000050: 74a0 14bd d0d2 f5bd 1033 94bd 4c9e 973b
00000060: c1bc e1bd 76ab 01bd eee4 c0bc 2f8d 783d
00000070: f5b4 83bc 1add 4bbc 0257 f6bd 680e 5c3d
00000080: 0ec2 d5bd 3160 ac3d 57fa dcbd 70d5 393d
00000090: 27aa 2fbd e975 5e3d e868 21bd 1b5c d83d
000000a0: f659 1b3d 6a1f 23bd 8b76 9abd 82bd 14be
000000b0: ef9b b1bc 04ef ecbc 9f2c c7bc 64b3 b23c
000000c0: 14b1 6ebd d2a6 debd 3900 143d 0316 e03d
000000d0: c00d d4bd ca90 a23d a67d 3cbd b0a0 00be
000000e0: 3954 a4bb 2811 013d 48ac e0bb 7a91 7bbc
000000f0: b71c e2bd 025d 5c3d 90ad 06be f475 6dbd
00000100: e554 35bc 402b ec3d 8b3a d2bd 2657 8b3c
00000110: b9f1 973d 58e9 933c af41 b5bc 68d3 1d3d
00000120: 2dc3 0fbe 6a74 163c cd5d 86bc 67ee 10be
00000130: 1e02 09be 585e e53d 8b1b a4bd 9527 82bd
00000140: 0e95 c33d 8c37 ab3d dfa8 5dbc 8efb e23a
00000150: 1882 8a3c 96a0 8e3d 61ed 2b3d a4e0 9ebc
00000160: 8ea6 5d3d a3d1 82bd 8fe1 e9bd 5998 32be
00000170: 723d 03be f532 9e3d 3d40 88bd 8284 ddbc
00000180: 511e 83bc 3240 49bc 585e 36bd 8b87 19bd
00000190: 24fc 1c3d 475b 96bd db7c 1fbe 4ce3 58bd
000001a0: fa40 0cbd b7e9 ce3d 3547 bb3c 7558 ebbc
000001b0: 4516 11bc 805b 833d fcca 263d a323 83bd
000001c0: 2af7 f73d 37b3 10be 0ffe fdbd 4a50 49bd
000001d0: 6a36 94bc ed89 0fbe c516 943c 7f04 d93d
000001e0: 117e 0b3d b6ca ea3a 9d02 913d a82a c23c
000001f0: c6ee e53c 37ec 40bb 5c3b 883c d40f ebbd
0.010248135 -0.07693653 -0.025705151 0.062795356 0.026197486 -0.040645894 -0.037800502 0.040381268
0.048941985 -0.047149204 -0.038060743 -0.050642777 -0.054499805 0.089654244 -0.002426206 0.033063464
0.027658295 -0.070652634 -0.1640227 -0.09832086 -0.036285833 -0.120031 -0.07236302 0.0046270248
-0.1102233 -0.03165766 -0.023546662 0.06068152 -0.016077498 -0.012442851 -0.12028314 0.053724676
-0.104374036 0.084167846 -0.10789936 0.045369565 -0.04288688 0.054311667 -0.039406687 0.10564443
0.03792759 -0.03982488 -0.075421415 -0.14525416 -0.0216808 -0.028922565 -0.02431327 0.021814056
-0.058274344 -0.10871662 0.036133025 0.109416984 -0.10354185 0.079377726 -0.046018265 -0.12561297
-0.005014923 0.031510502 -0.006856475 -0.0153545085 -0.11040633 0.053799637 -0.13152146 -0.057973817
-0.011067604 0.11531687 -0.102650724 0.017009329 0.07419152 0.018055603 -0.022126047 0.03853169
-0.14039297 0.009183029 -0.01640215 -0.14153443 -0.13379714 0.11199635 -0.08013066 -0.06355206
0.09549914 0.08360204 -0.013529032 0.0017317401 0.016907737 0.06964223 0.04197443 -0.019394226
0.054113917 -0.06387641 -0.11419975 -0.17440929 -0.12816408 0.07724563 -0.066528775 -0.027040724
-0.016005667 -0.012283372 -0.044523567 -0.03748278 0.038326398 -0.073416285 -0.15574972 -0.052951142
-0.034241654 0.10103171 0.022861103 -0.028728703 -0.008855407 0.064139366 0.040720925 -0.064032815
0.1210769 -0.14130865 -0.124019735 -0.049148835 -0.018092353 -0.14017458 0.018077264 0.10596561
0.034055773 0.0017913196 0.070805766 0.02370198 0.028067958 -0.002943767 0.016629867 -0.11477628

xyz_encoding_4.0.weight f4 [128, 128]
00000000: 4b62 6bbd ef98 85be d173 65bd 4594 d0bd
00000010: 5e76 3abd a05c 2b3e 91e2 33be e44b d3bb
00000020: c0ad 5e3d fa4f 0cbe a470 323d adb7 43be
00000030: 2695 013c 773d 07bd 6c89 79bc 2b05 ee3d
00000040: 3bd0 073d d8c6 133d 13b0 a5be 27d0 bcbe
00000050: 7faa c0bd 31c6 ed3d 52a1 833d c398 ac3d
00000060: 8708 3f3d fda2 283e 39db a63d 94f2 c93d
00000070: e041 bf3d a759 56be fb9a 2c3e c5d9 bf3d
00000080: 06ae 223d 32b3 be3d 5235 bf3e 3d9e 87be
00000090: ad16 3cbd 3435 d53d 9588 7b3e a4d0 c5bd
000000a0: d339 983d d89a 85be f085 633d 658f 083e
000000b0: 0264 7c3e 4a36 09be 65d6 2f3e 2114 34be
000000c0: 119b ba3d fdfb c53c 0780 6a3b bf31 773e
000000d0: 6305 eb3d cb37 b03e 5a9c 30bd 5704 c5be
000000e0: 7cb4 c53d 0fb2 103e 5443 62be 808d 2fbd
000000f0: 6011 b03d 6cc2 733e d68c 88be 5c41 ff3d
00000100: 6480 0abe 4493 203c fea5 d1bd 7b95 693e
00000110: a9fe 96ba d046 f73c 5b3e 22be bf7b 90bd
00000120: 4a6d 67be b898 973e f843 c33e a5e0 1bbe
00000130: d044 d0bc 8224 1bbe 0ac1 5fbd 331b 89bd
00000140: 0f05 b2be 14d7 d2bd e03a 723c 21a9 54be
00000150: ad46 263e 545d cebd 01d7 c1be 0925 1abe
00000160: 0e37 11be 6b25 e6bc ce88 edbd 087e 6a3c
00000170: a057 c4bd 694d 7abd 02ad 87bd e874 623d
00000180: 9165 0abe be19 8c3d ee87 313e 3891 3cbc
00000190: 7bb9 dabe 72b3 81bc 4e21 9dbd f67f f83d
000001a0: a813 65be 8caf f93c 21f3 bd3d 35e7 35ba
000001b0: 066a 61be 7b16 f03d 45b0 17bd 6a93 5f3d
000001c0: f953 163d 9e92 84bb 582a 303c afcf 243e
000001d0: c1f9 c4bd 1e24 28be 2589 8b3c 8198 713b
000001e0: 645d 053e 2eaf b6bc 7c33 f83b aa14 5bbd
000001f0: 13ea ccbd 6022 a4be 0ca8 c8be e3da 54be
00000200: 9691 36bb 802a dc3d ad3f 863e b5d1 ddba
00000210: 5e0c b23d dca1 aa3d 9cee 643d 0b66 0c3e
00000220: cc6a ac3d 56a8 17be 98cd 3bbe 5e63 a5bd
00000230: 2d3e 81bc bbf8 eb3d a7cf 8cbd 45c3 7b3d
00000240: 37d2 533e c842 20bd 7c6c 42bd 0f3f 533e
00000250: 432b b7be 2ec8 a8bd 5c78 99be e536 21be
00000260: dde4 5c3d 5a9c 2abd ddd0 b7bc cd96 8c3e
00000270: 4127 7b3d 5996 57be d9c6 dd3d ed1f dfbd
00000280: a01c 27bc b1aa 2f3d 8144 afbe 9531 683d
00000290: dac0 6fbd 5a54 a73d 7c38 0a3d 5664 29be
000002a0: b66f 10be c8cf 623e c42e a0be 9cfe 89bd
000002b0: 846a 0d3e fbba 823d c0ca 42be 88a6 c43d
000002c0: e87b 14be fc35 b53d e95c d5be 720d 4bbe
000002d0: a9e5 653d 1919 0abe e223 1a3e 73e2 4d3d
000002e0: 3212 c73e 9449 b1be 819c 82be a57c 2cbf
000002f0: b384 ef3d af6f 4cbe 19be ac3d 6f5e 8b3d
00000300: 353a 433e 4993 bdbc 0772 7b3d 3c75 b0bd
00000310: c31d 923d 6c43 4e3e c6e0 013d 0947 efba
00000320: 955f 4abd 47bd 5f3d 27ea 0bbe 0e35 15be
00000330: 532f 8abd 3d70 853e a312 333d 713a 84bd
00000340: b2b5 063e 5e78 a43e d471 8e3e e8a2 0ebc
00000350: 99a7 b53c b4a9 283c 6280 203d 9551 0f3c
00000360: 1ed5 01bd 298f 083e 6edb 883d 3535 173e
00000370: e5ad b73d 395d bb3d 73c9 90bd cbc8 6f3d
00000380: 3001 063c 1137 2e3e 8d32 b4bd 106d c8bc
00000390: eaf8 cebe 11c7 37bc ccaa a4bd c91c f63c
000003a0: 4cf1 ad3d 10f4 8abe a670 f33d b42c 9cbc
000003b0: fc55 61be 76f3 bc3b cbf1 e43d 4a12 183d
000003c0: 9607 cd3d 86b5 02be a81d 0b3e 21a1 993d
000003d0: f5fc ad3d fe1c 8fbe f061 173d 0a94 993d
000003e0: e5c2 c3bd 424b a0be 312c ddbc 5876 213e
000003f0: ae50 ac3d ac71 953c 3f60 1cbd 994f 16be
-0.057466786 -0.26093242 -0.056018654 -0.1018453 -0.04552304 0.16734552 -0.17566897 -0.006448256
0.05436492 -0.13702384 0.043564454 -0.19113036 0.007909095 -0.0330176 -0.015230518 0.116220795
0.03315757 0.036078304 -0.32360896 -0.36877558 -0.094075195 0.11610068 0.06427254 0.084275745
0.04663899 0.16468425 0.08147282 0.09860721 0.093387365 -0.20932637 0.16855995 0.09367708
0.039716743 0.093115225 0.37345368 -0.26487914 -0.045920063 0.10410538 0.2456382 -0.09658936
0.07432904 -0.260947 0.055547655 0.1333595 0.24647525 -0.13399616 0.17171629 -0.17585804
0.09111608 0.024168009 0.0035781877 0.2414007 0.11475637 0.34417567 -0.04311786 -0.38479874
0.09653565 0.14130424 -0.22095996 -0.042859554 0.08597064 0.23804635 -0.2666995 0.12463638
-0.1352554 0.009800736 -0.102367386 0.22810929 -0.0011519986 0.030185133 -0.15844099 -0.07054853
-0.22600284 0.29608703 0.38137794 -0.15222414 -0.025423437 -0.15150645 -0.054627456 -0.06694641
-0.34769484 -0.10294929 0.014784545 -0.20767643 0.16237898 -0.10076395 -0.37859347 -0.1505319
-0.14181158 -0.028094014 -0.11598359 0.014312275 -0.09587026 -0.06110898 -0.066247955 0.05528727
-0.13515307 0.068408474 0.1733701 -0.011509232 -0.42719635 -0.015832637 -0.07672368 0.121337816
-0.2237078 0.030479215 0.09274889 -0.00069390546 -0.22013101 0.11723038 -0.037033338 0.054583944
0.036701176 -0.0040457984 0.010752283 0.1609485 -0.09617949 -0.16420028 0.017033169 0.003686458
0.13023907 -0.022300329 0.007574497 -0.053486504 -0.100055836 -0.32057476 -0.3919071 -0.20786624
-0.0027857772 0.10750294 0.26220456 -0.001692346 0.08693765 0.083316535 0.055891618 0.13710801
0.084188074 -0.14810309 -0.18340147 -0.080755934 -0.015776718 0.11522051 -0.06875544 0.06146552
0.2068566 -0.039126188 -0.04746674 0.20629524 -0.35775194 -0.08241306 -0.2997464 -0.15743597
0.0539292 -0.041653015 -0.022438461 0.27458802 0.061316732 -0.21053447 0.10828943 -0.10894761
-0.010199696 0.042887393 -0.34231952 0.05668791 -0.058533527 0.08170386 0.033745274 -0.16542181
-0.14105114 0.22149575 -0.3128568 -0.06738016 0.13810164 0.0638332 -0.19022655 0.09602076
-0.14500391 0.08848187 -0.41672447 -0.19829348 0.056127224 -0.13486136 0.1505275 0.050264787
0.3888107 -0.34626448 -0.25510028 -0.6737769 0.11695232 -0.19964479 0.08434696 0.06805121
0.19065173 -0.02314152 0.06138804 -0.08616111 0.07134583 0.20142907 0.0317085 -0.0018255423
-0.04940756 0.05462387 -0.13663541 -0.1457102 -0.06747308 0.26062194 0.043718945 -0.06456459
0.13155249 0.32123083 0.2782122 -0.008705832 0.022174643 0.010294367 0.039184935 0.008747478
-0.031697385 0.13335861 0.06682478 0.1476639 0.089687146 0.0914864 -0.070696734 0.0585411
0.008178994 0.17013194 -0.08798704 -0.024466068 -0.4042428 -0.011216895 -0.080403894 0.030043023
0.08493289 -0.2713933 0.1188672 -0.019064285 -0.22005457 0.0057663275 0.11178931 0.037126817
0.100112125 -0.12764558 0.13585532 0.07501436 0.08495513 -0.27951807 0.036958635 0.07498939
-0.095586576 -0.31307417 -0.026998611 0.15767801 0.08413826 0.01824268 -0.038177725 -0.14678802

xyz_encoding_4.0.bias f4 [128]
00000000: e426 b23d 4e37 f53c f43f 093d eefe 933c
00000010: a68f 1abd 107f 403d cc67 743d cdfe 693d
00000020: 4a17 d5bb 4123 613d 1771 e63d 3035 363d
00000030: 192d b9bd 4aa1 01be f2cd fabd 2c59 093d
00000040: 7bec 7e3d 6c3b 9ebd d56b 12bc c2c6 9dbc
00000050: da9e 823d f110 6bbd 1192 13bc 2c5c 803c
00000060: aeeb bc3d 9fe7 7bbc 0789 0cbb e27d 083e
00000070: 7c66 d8bd 1397 bd3c e8ad c9bb 420a 603c
00000080: 20d1 a13d 20db 6abd e14c 6f3d c12d f3bd
00000090: 5705 c53d 6cdc a63d 73cd ff3d d105 853d
000000a0: 86fc cf3d a5f7 2abe e2b3 7b3d 7c22 9c3d
000000b0: bca2 ee3d 3f24 b6bc 95eb 703c 37b8 f5bd
000000c0: a20b 09be 26fa 01be a1e2 48bc 4673 cf3c
000000d0: 5764 ab3d e798 c23c 6edc 9c3d 1e4f a8bd
000000e0: 7685 533d 7d54 273e 1ff2 b23d 53a2 aa3b
000000f0: 658e c53d 0d8c f93d a775 6a3d b638 3bbd
00000100: 8125 3abd ac67 ad3d 431e 0bbd 8c12 1d3d
00000110: e064 153d a282 12bd 78c3 043d 7911 2ebd
00000120: f7f5 c3bd a188 87bc 6759 c9bc 6081 f33b
00000130: eac9 aabd c3da b7bd 0bbe dabc a77d 603d
00000140: d9db 95bd 26bc 9dbd 92b4 a8bd 67de 373d
00000150: e70b b1bc d279 143a c6a5 fdbb 334d 6b3d
00000160: c53c 5e3d cff9 603d 5157 b63d a856 283c
00000170: 6c6a b93d 3460 b53d 40e2 1ebd d03a 913d
00000180: ba16 b93d 002a f23d 6575 92bd 0199 6a3d
00000190: 3c19 973d f30b e1bd 0f0d 083d 1e15 18bc
000001a0: 242d 86bd 4b8a 67bd 2f5c d43c 10a0 c0bd
000001b0: 915b 8fbb 40af 9b3d e972 04be 8c21 993d
000001c0: fa2d 193c da2c ee3c 1b00 453d e32e ccbd
000001d0: 7903 12be e8dd ae3d 1a41 ee3d ec52 733d
000001e0: 8fee c83d 6498 ad3c b60a f5bd 7027 89bc
000001f0: 5da7 c13d f361 b13d f6df 3d3d 44d3 8a3d
0.08698824 0.029933598 0.033508256 0.018065896 -0.03773465 0.046996176 0.0596693 0.057127763
-0.0065030204 0.05496526 0.11252039 0.044484317 -0.09041805 -0.12659183 -0.12246312 0.033532307
0.062237244 -0.077261776 -0.008936842 -0.019259814 0.06377955 -0.057389203 -0.009006993 0.015668951
0.0922464 -0.015375047 -0.002144398 0.1332927 -0.10566422 0.023143327 -0.0061547644 0.013674321
0.079012156 -0.05733788 0.058422927 -0.11873961 0.09620159 0.08147511 0.12490358 0.0649525
0.10155587 -0.16696031 0.061450846 0.07623765 0.11652133 -0.02223408 0.014704605 -0.11998027
-0.13383344 -0.1269308 -0.012261064 0.025323521 0.08368748 0.02375455 0.07659231 -0.082182154
0.05164095 0.16340823 0.08737587 0.005207339 0.096463 0.12184916 0.05724111 -0.04570838
-0.045445923 0.084670395 -0.033964407 0.038347766 0.036473155 -0.035769112 0.032412976 -0.042497132
-0.095683984 -0.016544642 -0.024578763 0.007431194 -0.08339293 -0.08977272 -0.026701948 0.05480733
-0.07317323 -0.07701902 -0.08237566 0.044889834 -0.02161212 0.00056639046 -0.007740709 0.05744667
0.054257173 0.054925736 0.08903373 0.010274567 0.090535015 0.0885624 -0.038789988 0.07091296
0.09037538 0.11824417 -0.071512975 0.057274822 0.0737786 -0.10988607 0.03321558 -0.0092823785
-0.06551579 -0.05652837 0.025922863 -0.094055295 -0.0043749292 0.07601786 -0.1293446 0.07477102
0.009349341 0.029074121 0.048095804 -0.099698804 -0.14259137 0.08538419 0.11633511 0.059405252
0.098111264 0.02119083 -0.119649336 -0.016742438 0.0945575 0.086612605 0.046356164 0.06778577

xyz_encoding_5.0.weight f4 [128, 191]
00000000: d7c7 be3d 1119 9abd 5f69 3e3d 3de8 ba3d
00000010: 2a4b 8b3c 0749 243c cb87 95bc c5b9 2e3d
00000020: 0503 29bd 41d9 b4bc 3318 8cbd 571e d43c
00000030: 009e 95bc ab9f a8bd c8d7 0abe 4e4a a7bc
00000040: cea1 71bd 27b9 2c3d 89fd a93c da99 69bd
00000050: af8a c3bd cb33 413e 5304 e93d 5490 56be
00000060: 1280 b5bd 46d6 c4bd f3cb 693c e868 b23d
00000070: 6df2 563e b021 08be 4494 0cbe 4109 713d
00000080: 2fea 1ebd 108f 52be 1e45 a2be 1dd1 64bd
00000090: 2316 6cbe d06e 0cbe 94ae bcbb 4f08 023e
000000a0: 31af 53be b3d0 23bd b5de 84bc c866 10be
000000b0: 8a5e ccbd e06a aabc 2ad2 913c bb1b e23b
000000c0: 3eed 26bb b8d7 42be f03f c23c 8350 0fbc
000000d0: b63e 42bc 98bf 93bb 2836 713b 3505 d8bc
000000e0: 40cb dfba 44aa 27bb 37c6 743c a1d2 8f3a
000000f0: 9757 9ebb ca2e 5bbb 8e09 f4b9 17c7 8ebd
00000100: ac87 80be 68f0 82bd d591 5ebe c60c 85be
00000110: 84f9 e4bd 8458 e2bd 7761 0c3e 4343 e1be
00000120: 158e adbe 99d9 513b fd1c fabd b423 083e
00000130: ca57 a93d e3e0 90bc e91a 2c3d a5ab 0a3e
00000140: cf79 af3b e65b 943e 9e70 3b3d e0b9 b5bd
00000150: 07ad bfbe c297 cabe 2564 283c b1c1 053e
00000160: 9e96 27be b9b0 343c 0fdc d4be b0b2 bb3c
00000170: a9da 8c3d cd65 cabe 326c 24bd 5774 c1bd
00000180: 746f 92be 1b5e dbbd 00c3 6b3c 52ae 7cbe
00000190: 5aaa 10be e2f4 20bc 68fb 4fbe 216d 323e
000001a0: f2ad 5ebe 3275 b03c 3fea 0c3e 7b52 263d
000001b0: 4a9a f63d e086 5bbd 6093 91be d3b5 a63c
000001c0: 25d5 c83d 4027 4fbb 8a0a 6abd 3c9e 583e
000001d0: b63e 66be 75f5 83be da98 f63d c9f4 85be
000001e0: 7959 8e3a a7e5 08be 612c 20bf b3ed 0cbe
000001f0: 4db0 88be 5798 f4bd cc4a 2abe ec8f 67be
00000200: 01e2 5b3d d1cc 3d3e d9cd bc3d ee4a 363e
00000210: 693c a9be adbd a1be 5edb 56be 8e1e 4abd
00000220: e549 febe d6ea 483d 2209 99be 52c3 9cbe
00000230: 8534 45be b888 e2bd ebfd 19be a5fc d6bc
00000240: 6be7 23bd 9dc1 5a3e 7e06 2b3e 1a67 82be
00000250: 060d d4be 624a 2fbf 50ff 87be 773c 6b3e
00000260: 93ea 333e a927 143d e99e 85bc 01c1 be3d
00000270: dc49 4dbe be85 77be b35c b8bd b124 bdbe
00000280: 46c1 893e 1295 f8b9 b148 8dbd 2756 0bbf
00000290: 18be 2fbd 7914 cc3d e96a 02be 5aee 0fbd
000002a0: e5d5 023e 7040 4fbe 8778 9fbd 5378 6f3e
000002b0: 530c ecbd 9b5f 043e 3827 1e3d 0e0f 923d
000002c0: 8f9f 0e3e cb4a f33c 91cd 303e fbfd b63e
000002d0: 9411 79be 1dff 4ebe e958 b93d 789c 0d3c
000002e0: ac08 5cbe 2ad9 403e c9d9 503d 41ff 29bc
000002f0: 0d59 49be 3058 16be b12c e83d 2276 fd3c
00000300: 6e4a c4bd 39b6 3f3b 84d2 98bd afe6 f5bd
00000310: c2cc bc3b d92e b73c b517 623c 1e10 ccbd
00000320: bf32 11be 32a1 26be 0588 383d 9a18 703c
00000330: 7153 dbbd 71fd 753d aae1 f0bd 642a b0bd
00000340: 0ffe 2b3e e692 b1bd 3969 b9bd 533c 05ba
00000350: ce4e f13d 8f26 15be 392f 6dbe ac9e 74be
00000360: 44aa 39bd 3f89 24be b456 343d f2c1 5d3d
00000370: b5ac d83c 8d9d 19bd 7ad2 0bbe f936 8bbe
00000380: fa0a 213e ea4f 093e 4ac4 67bd 318c 62bd
00000390: df82 0dbc 2684 983d 53e5 553b bb6e fbbc
000003a0: ad62 7a3d b6b9 31bd f228 13be 8bfd a33d
000003b0: ff34 c7bc 2377 75bd 6d47 933b a861 9a3c
000003c0: 21e0 28be 4b3a 1a3d 8bf7 a7bb aed8 09bc
000003d0: 9972 e939 fcca 05bc 6280 573c 664b f7bb
000003e0: 0aa8 b2ba bf58 203c 145a d9ba 0306 db3b
000003f0: d997 393c 15d0 1b3b c5c0 833d 59ed 20bd
0.0931546 -0.07524312 0.04648721 0.09126327 0.017003614 0.010027177 -0.018253228 0.042657632
-0.041262645 -0.022076251 -0.06840553 0.025893373 -0.018263817 -0.08233579 -0.13558877 -0.020421173
-0.0589922 0.042168763 0.020750778 -0.05703149 -0.09547936 0.18867414 0.11377778 -0.20953494
-0.08862318 -0.09611182 0.014269817 0.087114155 0.20990916 -0.13294101 -0.13728434 0.058846716
-0.038797554 -0.20562387 -0.31693357 -0.05586349 -0.2305532 -0.13714147 -0.005758116 0.12698482
-0.20672299 -0.039993953 -0.016219476 -0.14101708 -0.099789694 -0.020802915 0.01780041 0.0069002784
-0.0025470997 -0.19027603 0.023712128 -0.008747223 -0.011855772 -0.0045089237 0.0036805961 -0.02636967
-0.0017074123 -0.0025583664 0.014939836 0.0010972806 -0.004832219 -0.0033444637 -0.00046546425 -0.06971567
-0.2510351 -0.0639351 -0.21735318 -0.25986308 -0.11180404 -0.11052039 0.13709055 -0.4399663
-0.33897462 0.0032020567 -0.1221256 0.1329487 0.082686976 -0.01768536 0.04201785 0.1354204
0.005355097 0.28976363 0.045761697 -0.088733435 -0.37436697 -0.39568907 0.010277783 0.13062169
-0.1636605 0.011028462 -0.4157414 0.022912353 0.068776436 -0.39530793 -0.040142246 -0.09446018
-0.28600657 -0.107113086 0.014389753 -0.24675873 -0.14127484 -0.00982401 -0.20310748 0.17424442
-0.21746042 0.021540258 0.13761233 0.040606003 0.12041147 -0.053595424 -0.2843275 0.020350372
0.09806279 -0.0031609088 -0.057138957 0.21154112 -0.2248486 -0.25773206 0.12040873 -0.2616332
0.0010860405 -0.13368855 -0.62567717 -0.1376255 -0.26697007 -0.11943119 -0.16630095 -0.22613496
0.05368233 0.18535163 0.0921895 0.17802021 -0.33053902 -0.31590024 -0.2098212 -0.049345545
-0.49665752 0.049052082 -0.2988978 -0.30617768 -0.19258316 -0.11061233 -0.15038268 -0.026243517
-0.04001562 0.2136292 0.16701695 -0.25469285 -0.41416186 -0.68472874 -0.26561975 0.22972284
0.17569952 0.036170635 -0.016311126 0.09314156 -0.20047706 -0.24172112 -0.09002056 -0.36942056
0.26905268 -0.00047413312 -0.068986304 -0.54428333 -0.042905897 0.09964842 -0.12736095 -0.03513942
0.12776907 -0.20239425 -0.07786661 0.23385744 -0.11525788 0.12927096 0.03861162 0.07131778
0.13928054 0.02969875 0.17265917 0.35740647 -0.24323112 -0.20214505 0.090501614 0.008643262
-0.21487683 0.18832842 0.050988946 -0.010375799 -0.19662876 -0.14682078 0.11336649 0.03094012
-0.09584509 0.00292529 -0.07462028 -0.1200689 0.0057617137 0.022361206 0.0137995975 -0.099640116
-0.14179514 -0.16272429 0.045051593 0.014654303 -0.107092746 0.060056154 -0.11761792 -0.08601835
0.16796134 -0.08670597 -0.09053273 -0.00050825364 0.11782609 -0.1456549 -0.23162545 -0.23888654
-0.045328394 -0.1606798 0.044028 0.05414004 0.02644954 -0.037503768 -0.13654509 -0.27190378
0.15726843 0.13409391 -0.05658368 -0.05530948 -0.008637159 0.0744708 0.0032637909 -0.030692449
0.06112926 -0.04339 -0.14371088 0.08007344 -0.024317263 -0.05992807 0.0044945986 0.018845394
-0.16491748 0.03765325 -0.005125945 -0.008413477 0.00044526605 -0.008166071 0.013153167 -0.00754683
-0.0013630402 0.009786784 -0.0016582632 0.0066840663 0.011327707 0.002377515 0.06433252 -0.039288852

xyz_encoding_5.0.bias f4 [128]
00000000: a17f 37bd f7f0 bcbd dd3c 56bd b9ed 133b
00000010: a9bf ab3c 1c64 92bd 4b47 acbc 0867 893c
00000020: 0a27 813b 738e 5b3d d4c4 62bd 8d8d 3ebc
00000030: c487 5f3c f7a7 e83b 1b19 243b 7807 b6bd
00000040: a5a6 1fbd 5b3a 65bc 11bb b4bd 0bb5 57bb
00000050: 4ae3 81bd 993d 3f3d 4407 7fbd aa9d 99bd
00000060: 85ab fe3c 98d8 413c 40a7 66bd f703 03bc
00000070: d851 43bc b921 a1bd 457a 6cbd cb71 11bd
00000080: 1cf2 93bd bc9e 79bd b9ed 883c 5da5 163c
00000090: a50a 2b3b 85d4 c4bc c20f c1bc 1406 24bd
000000a0: a42c 573d fee1 53bd 16ba 89bc 28a1 2b3d
000000b0: 9c87 04bc a437 bf3d 0b11 8ebd 6297 c4bc
000000c0: 151f d8ba 1035 cc3a 7db6 02bc a7ed 5c3c
000000d0: ebd1 81bd 3993 2bbd 8196 6fbd e7df 1f3d
000000e0: 750b 5ebd f627 a8bc 256d 70bd 1bc8 35bd
000000f0: 94b8 0cbd 822d 5a3d bf4d d4bd 3ce5 5f3c
00000100: 6daf 96bd b4de 8b3c 8a7d 8ebd 4664 4fbd
00000110: 6f8b abbd e610 eabd a2e7 99bc 6eb5 a1bc
00000120: 12d5 61bc ee2a e2bd 7b1e 76bd a135 313c
00000130: f51e 55bc 0ef1 293d 6d27 c8bc e1e9 11bd
00000140: 8bf8 203d 0d8c 4bbd e5c7 c1bd 7d2c 1d3d
00000150: 8fb3 87bd e3cb aebd 39de 86bc 7340 74bc
00000160: b547 63bd e34f 20bd 7c6c f3bd 7ee6 94bd
00000170: f1c2 12bd 4eea 94bd 4a77 a2bb 935e 2ebd
00000180: ee25 a1bc 3166 29bc c18e adbc 86de edbd
00000190: 25a5 78bd f665 3b3b f6de 94bd faa7 29bd
000001a0: 54de 94bc f2bd b4bc 7acd cabd 7dc3 eabd
000001b0: 51ee 81bd 71f3 dc3b 1b77 35bd 418e 0b3c
000001c0: 20ee b3ba eb2e 6ebd c929 3e3d 09d5 953c
000001d0: d034 283d 80d3 e53c 2be5 873c 3598 633d
000001e0: 3cbb 3cbd 88ec 95bc 505a 323d 2aa1 47bc
000001f0: 7edb fcbd 5fa2 e33c 7cb5 a13d bbb5 80bd
-0.04479945 -0.09225648 -0.052304137 0.0022572114 0.020965414 -0.071480006 -0.021030089 0.016772762
0.0039414214 0.053602647 -0.05536349 -0.011630428 0.013643209 0.007100101 0.0025039378 -0.08888143
-0.038977284 -0.013990964 -0.088247426 -0.0032914307 -0.0634218 0.046689603 -0.06226279 -0.07500775
0.031087646 0.011831425 -0.056311846 -0.007996551 -0.011921369 -0.0786776 -0.057733793 -0.035508912
-0.07223913 -0.060942397 0.016714917 0.009194699 0.0026098874 -0.024027118 -0.023567084 -0.04004486
0.052532807 -0.051729195 -0.016812366 0.041901737 -0.008088972 0.093367845 -0.069368444 -0.023997966
-0.0016488755 0.0015579779 -0.007978079 0.013484395 -0.06338867 -0.04188845 -0.05849314 0.03903189
-0.054210145 -0.020526867 -0.05869784 -0.04438029 -0.034355715 0.053266056 -0.103663914 0.013665494
-0.073576786 0.017073967 -0.069575384 -0.050632738 -0.08376204 -0.11429004 -0.018787209 -0.019739833
-0.01378371 -0.110433444 -0.060087662 0.010816009 -0.013007869 0.041489653 -0.024432862 -0.035623435
0.03929953 -0.04969411 -0.09461955 0.038372505 -0.06626045 -0.08534982 -0.016463386 -0.014907944
-0.055488307 -0.039138686 -0.11885926 -0.072705254 -0.03583044 -0.072712526 -0.004958068 -0.04257066
-0.019671407 -0.010339306 -0.021186234 -0.116147086 -0.06070437 0.002859471 -0.07269089 -0.04141996
-0.01817242 -0.02206323 -0.09902473 -0.11463068 -0.06344283 0.0067428877 -0.04430304 0.008517803
-0.0013727583 -0.058150213 0.04642657 0.01829006 0.04106599 0.028054953 0.016588768 0.055565078
-0.046076998 -0.018301263 0.04354316 -0.012184421 -0.12346552 0.027787386 0.078959435 -0.06284662
