initial_state.pth (torch, 642525 bytes, 23 tensors)

xyz_encoding_1.0.weight f4 [128, 63]
000000 24 61 8c bd d1 97 8a 3e 53 bf 8c bd 95 9f 1b be
       -0.068544656 0.27068952 -0.0687243 -0.15197594
000010 a6 87 0e 3e a0 80 94 3d 94 95 ea bb 29 93 ed 3d
       0.13918933 0.07251096 -0.0071589444 0.11600334
000020 63 e3 60 bc d6 3a 8d bc f5 ea e8 3d 09 18 d6 3b
       -0.013726088 -0.01723997 0.113729395 0.006533627
000030 79 e8 43 be f9 1f 97 bd c4 03 04 be f8 ed ce 3c
       -0.1913165 -0.07379145 -0.12892061 0.025259957
000040 da c0 20 3e 16 8c 83 3c 86 d3 b3 be ea 76 b2 bd
       0.15698567 0.01605801 -0.35122317 -0.08714087
000050 34 3a 00 bc fb 0c df 3e 5a c7 a8 3d 3b 90 ba 3d
       -0.007826377 0.4356459 0.08241148 0.09109541
000060 1b 78 f0 3d b0 c1 0a 3b 9f 1f 81 3e 9d 14 ac bd
       0.11741658 0.0021172576 0.25219437 -0.08402369
000070 1c a9 40 be 6a bf 04 be 49 0d 87 3c 82 a6 aa 3e
       -0.1881451 -0.12963644 0.016485827 0.3333016
000080 2e 6e cc bd a1 e7 d4 bd 09 21 61 bd b2 77 05 be
       -0.099819526 -0.10395742 -0.054963145 -0.13033941
000090 4c bd 43 be 7d 03 39 3e 8d e9 25 3e ff 77 d9 bd
       -0.1911518 0.18067737 0.16202374 -0.106185906
0000a0 dc e1 52 3d d5 2c b1 bc b1 ae 40 3e f1 8a 64 be
       0.051484928 -0.021627823 0.1881664 -0.22318627
0000b0 93 6d 93 3d 69 9e fe bd 3e b5 8a 3c 9a b4 45 3c
       0.07198634 -0.12432558 0.016932126 0.012066985
0000c0 af 68 d3 bc 72 14 63 bd 47 c7 f7 b9 19 d1 f6 3c
       -0.025806753 -0.05543942 -0.00047259984 0.030129002
0000d0 57 af 86 bc 31 04 04 bc 76 ae b2 3c 77 71 8f 3c
       -0.01644103 -0.00805764 0.021811705 0.017510159
0000e0 7f 10 08 bb 28 d9 8c bb ee 87 32 3b 8c 99 2e ba
       -0.0020761786 -0.004298348 0.0027241665 -0.00066604535
0000f0 e4 28 5e ba df 91 86 3a 63 f7 0c ba 11 4d f1 bc
       -0.0008474721 0.0010266862 -0.00053774397 -0.029455693
000100 88 fc 50 3d 32 43 7d bc 53 f8 b9 bc 5f 0f dc 3b
       0.051022083 -0.015457915 -0.022701418 0.0067156996
000110 8e 02 96 3d b1 e6 b6 3d 53 28 1c be 43 cd c8 bd
       0.07324706 0.0893072 -0.15249757 -0.098047756
000120 34 d9 9b 3d a6 57 99 3d 7b 45 c6 3d fc 2f 10 3e
       0.076097876 0.07487421 0.09681221 0.14080805
000130 e2 19 c9 bc f7 3e 15 be 0c 40 b6 3c 2a f1 b9 bd
       -0.024548475 -0.145748 0.022247337 -0.090792015
000140 db f4 ba bd f2 06 6a 3e 8e 73 05 3d 08 54 d1 bd
       -0.09128734 0.22854212 0.032580905 -0.10221106
000150 49 66 f2 bd e4 32 49 3d d8 f5 50 bd c6 3d a9 bd
       -0.118359156 0.0491208 -0.051015705 -0.082637355
000160 a0 0a e3 bc 61 8f e3 bd 5b a7 b6 3d 6a a3 50 3e
       -0.027715027 -0.11111332 0.08918639 0.20374838
000170 e4 2b 30 3e bf 2e 19 be 80 46 fd bd f6 15 c2 bd
       0.17204243 -0.14959238 -0.123669624 -0.09476845
000180 e7 0f 36 3e dd 57 d3 3c e2 5a e3 bd 18 3f 7e bd
       0.17779504 0.025798732 -0.11101319 -0.06207189
000190 fe bb 56 3e 97 92 80 3e c2 3b c1 bd 59 14 25 bd
       0.20970151 0.2511184 -0.09435226 -0.04030261
0001a0 68 fb 8a bd 76 45 0a be 4f d4 08 be 20 6d 8c be
       -0.06786233 -0.1350306 -0.1336224 -0.27427006
0001b0 63 75 62 3d ae f3 38 ba 80 67 a3 3c 3c 1b 71 3d
       0.05528773 -0.0007055354 0.019946814 0.058863863
0001c0 be a1 95 be 8b ac 26 bc ee 1c 4f 3b e6 e8 06 bd
       -0.29224962 -0.010172973 0.0031602937 -0.032936953
0001d0 7d ed 12 bb ad 40 74 3c 3f 08 0c bc fc a6 0f bb
       -0.0022419386 0.014907998 -0.008546888 -0.0021919599
0001e0 d5 14 c0 bb 62 47 c1 3b a3 2d 17 3b a0 78 11 bb
       -0.0058618584 0.005898402 0.0023067973 -0.0022197142
0001f0 15 59 c9 39 96 d8 bc 3a b7 bc 29 be 5b e6 0c be
       0.0003840408 0.0014407809 -0.16575895 -0.13759749
000200 9d 31 7b bd fc 20 8d be f5 59 c7 bd dd 09 9d 3b
       -0.06132661 -0.27564228 -0.09733955 0.0047924356
000210 2c ac 6f bd c8 e6 99 bc f4 43 ef 3d 6d 6b 4a be
       -0.058513805 -0.018786803 0.11682883 -0.19767542
000220 47 f5 3e bd 10 57 1b bd 21 a9 02 3d 7c 7b 00 3d
       -0.046620633 -0.037924826 0.031899575 0.031367764
000230 50 0b 7f 3e 36 88 d9 3d a6 bb 06 3e 23 60 30 3d
       0.24906659 0.10621683 0.1315752 0.043060433
000240 7e 1c 10 bd 35 3e 63 be eb eb 47 3e 96 f6 38 3d
       -0.035183422 -0.22191699 0.1952359 0.045157038
000250 ab 83 d8 bd ba 28 02 be ce d1 a5 bd df 76 14 bf
       -0.10571989 -0.12710848 -0.08096658 -0.5799388
000260 1b e3 3f be 19 20 67 3e 55 0a 28 3e b6 61 08 be
       -0.18738978 0.22570838 0.16410191 -0.13318524
000270 52 f6 bc bc f6 ea 43 be f8 af 61 bd b7 08 97 3d
       -0.023066673 -0.19132599 -0.055099458 0.07374709
000280 29 f0 b6 bb e9 25 b3 bd 5a e0 80 be b9 2b 50 bd
       -0.0055828285 -0.08747465 -0.25171167 -0.050822947
000290 a5 9d 91 bd 22 14 2f 3d a4 30 bf 3d 0b a1 e6 ba
       -0.071101464 0.04274381 0.09335449 -0.0017595602
0002a0 5f ba ac bd 02 bb 9d 3d 91 8c 9a 3d ab 9e 30 bd
       -0.08433985 0.077016845 0.07546342 -0.043120068
0002b0 3e bd de 3d d4 e1 bf ba 61 3b 5f bc d0 24 64 bd
       0.10875939 -0.0014639446 -0.013624997 -0.05569917
0002c0 72 6c c1 ba eb 21 c9 3b b4 4f 50 bc 24 79 ba 3b
       -0.0014757051 0.0061380765 -0.012714315 0.0056907106
0002d0 30 cc 87 3b e5 12 09 bd 9c 0d a7 3a 03 96 2c bb
       0.004144214 -0.033465285 0.0012745145 -0.002633453
0002e0 f7 54 44 3b da f0 cd 3a 58 61 46 3b ed bd c0 3b
       0.002995787 0.0015712038 0.0030270424 0.005882016
0002f0 81 44 ee 3a 3b a1 ec bc 2c a4 63 3e f9 4c 14 3e
       0.0018178375 -0.028885474 0.22230595 0.14482488
000300 56 2d 48 be 4d 54 02 3e 25 6d 1c bd 93 7f 71 bd
       -0.19548544 0.1272747 -0.038190026 -0.058959555
000310 a6 f3 7d bd 7e ca 07 3d dc 0e 31 be d7 66 ec 3d
       -0.06199994 0.033152096 -0.17290825 0.11543053
000320 12 f6 0c 3d dd 75 a4 3d 69 fa ba bd f1 e7 77 be
       0.03441436 0.08030293 -0.09129793 -0.24209572
000330 77 30 dc bd 72 a8 3c 3e b4 7c 16 be 38 40 ca 3c
       -0.107514314 0.18423632 -0.14696008 0.024688825
000340 cd 5a 37 3d ce 98 80 bd 7b e0 e3 3d a1 9e da bc
       0.04476433 -0.06279145 0.111268006 -0.026686968
000350 c1 b6 7e 3c 85 c2 73 3d 5b 46 ca bb f6 c3 df 3c
       0.015546502 0.05951168 -0.006172938 0.027315121
000360 82 9f 6d be 13 9f 94 be c2 75 62 3e 8c 0d 4a be
       -0.23205379 -0.29027614 0.22115234 -0.1973173
000370 54 ad b9 bc 9b bc d7 3d 16 70 b6 bc f8 73 15 3e
       -0.022665657 0.105340205 -0.022270244 0.1459502
000380 e4 c2 6e bd a8 25 79 3e 5b 77 61 be 4b c0 76 be
       -0.05829133 0.24330771 -0.22018187 -0.24096791
000390 82 61 fb bd d3 a6 0d be 86 51 f1 3c 5b ba 41 3e
       -0.122744575 -0.1383317 0.029457819 0.18918745
0003a0 f1 6f ec 3d 9e 53 ae bc da 9e 90 bc 03 21 b2 bd
       0.11544789 -0.021280106 -0.017653871 -0.08697703
0003b0 77 1a 1f 3c e5 8d 6d bc 6e 20 33 3d 43 0b a4 3c
       0.0097109 -0.014499162 0.0437321 0.020024901
0003c0 3b a0 bb 39 b8 28 51 3c 70 86 26 3a 4c 09 22 bc
       0.000357868 0.012766056 0.000635243 -0.009889912
0003d0 24 52 2f 3d f0 13 f5 bb c8 f1 c8 3a 80 c6 48 3b
       0.042802945 -0.0074791834 0.0015330845 0.0030635893
0003e0 e2 e7 83 3a f2 55 80 bb 39 a8 a0 3a a7 67 65 3a
       0.0010063613 -0.0039164955 0.0012257166 0.0008751102
0003f0 c7 6e 6d 3e 22 ed 6e bd f5 5c e1 bc 17 5a 95 3d
       0.2318679 -0.058331616 -0.027510146 0.07292574

xyz_encoding_1.0.bias f4 [128]
000000 1b 2c ae 3d 14 54 fc bd d1 2a d5 3d ca 53 8b bc
       0.08504506 -0.12320724 0.10408557 -0.017007727
000010 fe bc e6 bd 25 dd 97 3d dc 58 03 be 3a a2 df bd
       -0.11266516 0.07415227 -0.12826866 -0.10919614
000020 7f cd 48 bd a7 19 c4 3d ff 81 75 bd ac 6a 72 3d
       -0.0490241 0.09575205 -0.059938427 0.05918376
000030 af 4d d1 bd 98 34 01 3d f2 e8 31 3d a4 59 2d 3c
       -0.10219895 0.031544298 0.043435045 0.010580454
000040 aa bd d0 bd f2 af b4 bd 26 5a b7 bd 9b f9 d9 bc
       -0.101924255 -0.088226214 -0.08952741 -0.026608279
000050 38 04 e2 bd 46 67 70 3d 73 88 3b bd 5f cf 02 be
       -0.11035961 0.05869224 -0.045784425 -0.12774418
000060 b5 c4 0e bd 15 2b a9 bd 9f 61 69 3d a8 26 96 bc
       -0.034855563 -0.0826017 0.056977864 -0.01832898
000070 eb e0 05 3e e4 e4 c4 3d 41 0b ad bd 45 5d a2 3d
       0.1307408 0.0961397 -0.08449412 0.07927946
000080 41 73 d7 bd e0 3c 17 be ca 0e 3b 3d c5 23 be bd
       -0.1052003 -0.14769316 0.0456684 -0.09284166
000090 25 69 0a be 51 1f cf bd fc 35 b7 bd c0 6c 0c be
       -0.13516672 -0.10113395 -0.089458436 -0.1371336
0000a0 69 72 db bc 7d 4e 1d be f2 b7 4a bd c0 35 27 3e
       -0.026787953 -0.15361972 -0.04949183 0.16329098
0000b0 05 ab ce bd 52 14 8d 3c 04 0a 7c 3d ec 36 99 bd
       -0.10091213 0.017221604 0.06153299 -0.07481179
0000c0 af 42 ee bb 88 b7 07 be ab 96 f4 3d 39 f5 74 3d
       -0.007271133 -0.13253605 0.119428 0.059804175
0000d0 6d be 8b bd 94 aa c1 3d 91 dc 18 be 3b ef 6a bd
       -0.0682343 0.09456363 -0.1492789 -0.057357054
0000e0 58 32 5d 3d c5 36 14 be b9 04 3e bd 4d 58 ce bd
       0.05400309 -0.14474018 -0.046391223 -0.10075436
0000f0 01 a6 16 be 50 9d 04 bd c8 79 6c bd 96 ca 8b bb
       -0.14711763 -0.032376587 -0.057733327 -0.0042660935
000100 6f f9 c9 bd 5f 1b 18 3d cf c9 fe 3b fd b2 0b be
       -0.09862029 0.037135478 0.0077755223 -0.13642497
000110 36 ad ae 3d b7 ac a9 3d 13 9d c6 bd cc fb e5 3a
       0.08529131 0.08284896 -0.09697928 0.0017546355
000120 4e c2 3f bd 64 88 2e 3d 01 54 be bd 00 08 f8 3d
       -0.046816163 0.04261054 -0.09293366 0.12110901
000130 cf 53 d2 bd c7 07 89 bd d1 43 24 3d b5 e0 f5 3c
       -0.102698915 -0.066909365 0.040103737 0.030014375
000140 2d 7c cf bd ea 0e ab 3d 76 e8 c3 bc 74 11 45 3d
       -0.101311065 0.08352454 -0.023914557 0.048112348
000150 57 b5 d4 bd 4c 70 77 3d 52 7a 88 bc e5 01 db 3d
       -0.1038615 0.06040983 -0.01665989 0.10693721
000160 a3 26 89 3d 4f 74 c6 3d 66 98 af 3d ea 9b a6 bd
       0.066968225 0.09690153 0.085739896 -0.08135207
000170 6e 30 c6 bd 9c 56 5e bc 66 1c 7b bd 1b 95 30 bd
       -0.09677206 -0.013570454 -0.06130638 -0.043110948
000180 7f 8a 86 bd 14 14 2d bd 2e aa cc bc eb 50 81 3d
       -0.06569385 -0.042255476 -0.024983492 0.06314262
000190 79 4a da 3c 02 3e bb bc 78 a6 40 3d 58 d3 47 bc
       0.02664684 -0.022856716 0.047033757 -0.012196384
0001a0 58 8c 84 3d ee 47 b8 bd 1f 78 63 bd 01 47 c9 bd
       0.06472081 -0.089980945 -0.05553448 -0.09827996
0001b0 b0 2a 31 3d dc 6c 7f bd 58 2d ea bd 6b 3a a1 bd
       0.0432536 -0.062359676 -0.1143443 -0.078724705
0001c0 9b 01 36 bc df f9 3b 3d 27 84 15 3d 89 c4 1f be
       -0.011108781 0.045892593 0.036502983 -0.15602316
0001d0 86 f4 02 bd f4 7a d0 bd b0 1b 90 bc 4a 89 bf 3c
       -0.031971477 -0.101797014 -0.017591327 0.023380894
0001e0 2e cc 47 bd aa 57 bd 3d 72 1e df ba b6 a9 82 3d
       -0.048778705 0.09245236 -0.0017022623 0.06380026
0001f0 e5 9d 05 bd ac 99 55 3d ba f6 d9 3c 55 2c 42 bd
       -0.032621283 0.052148506 0.026606906 -0.04740556

xyz_encoding_2.0.weight f4 [128, 128]
000000 bd 0d 50 3e cd a3 2b bc 8a 28 78 bc a1 7f 16 bd
       0.2031774 -0.010476065 -0.015146384 -0.03674281
000010 69 42 01 be 19 cd 31 be 0c 73 06 be b3 c0 99 3d
       -0.1262299 -0.17363395 -0.13129824 0.075074576
000020 ef 1b 07 bd f1 95 e6 3d 75 d0 56 be 37 ba 0f 3e
       -0.032985624 0.11259068 -0.20977958 0.14035879
000030 59 e2 5f be 07 e6 3d bd 7c 6d 4d bd 24 e2 38 3d
       -0.21863689 -0.04636195 -0.05015324 0.04513754
000040 ef 2a 72 3d e6 20 ef bc bf 6d e0 ba 06 23 3f bd
       0.059122976 -0.029190492 -0.0017122551 -0.04666426
000050 fa 38 e7 3c 58 df 51 be e8 ad 41 bd f3 73 5a 3d
       0.02822541 -0.20495355 -0.04728499 0.053333234
000060 05 f9 bc bc 7f 0c cc bd 89 4b 3d 3e d4 1a af bd
       -0.02306796 -0.09963321 0.18485846 -0.08550039
000070 f1 42 7d bd d1 25 47 bd e7 70 fc 3d 9b e0 0c 3e
       -0.06183142 -0.04862005 0.12326222 0.13757555
000080 be a7 8c be 40 75 30 3d 6f 79 36 3d 9a d8 b8 3c
       -0.27471727 0.04308057 0.0445494 0.022564221
000090 af 8e 1f 3e 14 86 eb bd 85 8a c9 bd 6b e0 0c 3e
       0.15581773 -0.11500183 -0.09840874 0.13757484
0000a0 4e 08 12 be ff a5 56 3d d7 be 54 3c 29 75 01 3e
       -0.1426098 0.0524044 0.012984953 0.1264235
0000b0 eb 4e e3 bc 60 96 5e 3c 65 52 07 bd ad b6 4b bd
       -0.027747592 0.013585657 -0.033037562 -0.04973476
0000c0 1d 66 6d bc cf 66 92 3c 68 b2 8a 3d 86 1c 38 bd
       -0.014489678 0.017871289 0.067723095 -0.044949077
0000d0 9e 5e 3e 3d b4 31 cf bd e3 b5 24 3e 49 96 17 3e
       0.046476953 -0.10116902 0.1608501 0.14803423
0000e0 0b 37 09 3c df 6f c1 bd 5d 2f cb bd b0 ed ec bd
       0.00837494 -0.09445166 -0.09921143 -0.11568773
0000f0 28 94 5a bd 92 33 44 bd 29 8d 17 3e 1e 83 be bd
       -0.05336395 -0.047900744 0.14799942 -0.09302352
000100 6a 3b 1e be 3b ba 17 3e 6d 6e 03 3e 12 5a c8 bb
       -0.15452352 0.14817135 0.12835093 -0.006114253
000110 e6 de e3 bb ef 36 b9 3d dc 68 ed 3d 2b 11 c8 3c
       -0.006954062 0.09043681 0.11592266 0.024422249
000120 4d 02 80 3d 5c 49 b5 3d 94 06 b2 bd 27 4f 9e 3d
       0.06250439 0.08851883 -0.08692661 0.07729941
000130 e3 4e 5d 3e 6f 1c 87 be db f7 02 3e c8 97 7c 3d
       0.21612124 -0.2638888 0.12789862 0.061668187
000140 e0 78 5e be 91 31 f6 3d e4 52 33 bd 44 0f 82 be
       -0.21725798 0.12021173 -0.043780223 -0.25402272
000150 05 c6 9e 3b c3 17 22 3d 00 5e df 3c 47 db 08 be
       0.004845383 0.039573442 0.027266502 -0.13364898
000160 79 ca 0f bd a9 29 c2 bd cf 3b 04 be d3 f4 3b bd
       -0.035105202 -0.09480602 -0.1291344 -0.04588778
000170 e0 07 53 3e a8 4f 29 be 21 4a 03 be 0a 60 02 3e
       0.20608473 -0.16534293 -0.12821247 0.12731948
000180 ba 63 2f bd 6e cb fc 3c 93 76 f5 3c 33 78 b3 bc
       -0.042819716 0.030858722 0.029963767 -0.021907901
000190 e8 f8 d4 3a 5e c5 f1 3d 42 0a 0b 3e cb 39 dd bd
       0.0016248496 0.11805223 0.13578132 -0.10802039
0001a0 f6 b4 d8 3d 7b 5d dd bd de 77 4c 3d c5 fa 80 3d
       0.105813906 -0.108088456 0.049919 0.062978305
0001b0 a6 9d 6c 3d 1d 85 4b 3e 3f 85 4c bc 1b 56 d2 3c
       0.057767533 0.19874997 -0.01248294 0.025675824
0001c0 9c cb 81 bc c2 ac 36 bd bb ae a9 bc 64 29 1c 3c
       -0.015844159 -0.04459835 -0.0207132 0.009531353
0001d0 3d 2f 76 3b 81 73 8d 3e 75 d5 5d 3e ad b8 86 3d
       0.0037564777 0.27627185 0.21663459 0.06578193
0001e0 a5 f8 a2 b9 90 91 c9 3d 1d d3 a7 bd c0 8a 41 3d
       -0.00031084302 0.09842217 -0.081945635 0.047251463
0001f0 f2 ad f7 3d 51 7e 1c bd 5e 79 62 3d 8a e3 3b 3d
       0.12093724 -0.038206402 0.055291526 0.045871295
000200 fd d7 42 3d 37 20 a1 bd a0 8a bd 3d 6c a7 6a be
       0.047569264 -0.078674726 0.09254956 -0.22915429
000210 26 a2 86 bd 43 bd 02 3e 6c f1 64 3c 19 7c 44 be
       -0.06573896 0.1276751 0.013973575 -0.19187964
000220 2c 97 f7 3c c7 ed b1 bd 33 b8 a6 bd a2 53 7b 3e
       0.030223452 -0.086879306 -0.08140602 0.24543622
000230 ba 1c 26 3e 9a dd 1c 3d 5f 85 1a 3e 73 4a 9d 3d
       0.16221896 0.038297273 0.1508994 0.07680216
000240 c2 a1 07 be 5a 5d 99 bc e3 a5 00 be 17 9d 60 be
       -0.132453 -0.018721271 -0.12563281 -0.21934925
000250 ac 25 cb 3d 88 49 e6 bd b2 7c 20 bd 83 06 79 bd
       0.09919295 -0.11244494 -0.03918142 -0.060797226
000260 25 e2 d5 bd 6b 6d 24 be f4 39 a6 3d ce 22 ea bd
       -0.10443524 -0.16057365 0.081165224 -0.1143242
000270 b1 2d 4d 3e 88 a5 12 bd fc c9 49 3d 24 82 fe bb
       0.20036961 -0.035802394 0.049264893 -0.007766979
000280 9b fa 0f be 6e 0a 14 3e 31 36 97 3d fe 52 f2 3d
       -0.14060442 0.14457104 0.07383383 0.11832236
000290 c3 0d 4c 3d ce 74 9c be 62 00 9d 3d f2 98 8a 3d
       0.04981781 -0.30557865 0.07666089 0.06767453
0002a0 67 f6 02 3e 18 1c 0d bd 51 64 47 bd 52 27 4c 3a
       0.12789308 -0.03445062 -0.048679654 0.00077878416
0002b0 92 46 0b bf d6 ad 0d 3d 25 a8 af 3d af 17 05 3e
       -0.54404557 0.03458961 0.08576993 0.12997316
0002c0 0a 5d 0d bc 75 44 e3 3d 49 fc 89 be c6 4e 2f be
       -0.008628139 0.110970415 -0.2695029 -0.17119893
0002d0 2c eb aa bd 8c 9f 0b be 67 c2 d1 3c 7c 4c 38 3c
       -0.08345637 -0.13635081 0.025605394 0.011248704
0002e0 de 4f 3a be 77 bd bc bd 7c b7 af 3c f2 fa 06 bd
       -0.1819453 -0.09215825 0.021449797 -0.032954164
0002f0 53 f5 00 3e b0 52 e4 3d 0e 58 21 3d 45 68 47 be
       0.12593584 0.11148584 0.039390616 -0.1947337
000300 26 81 f6 3d fe 69 2f 3d 2d b6 d1 bd 65 17 2e bc
       0.12036352 0.04282569 -0.102398254 -0.010625695
000310 a2 d8 33 be fd 2b 7f be c8 19 69 3e f0 7e 17 bc
       -0.17563108 -0.24919124 0.22763741 -0.009246573
000320 9b 7b db be 1c 7f d5 3d 45 5a fb 3d c0 43 98 bd
       -0.4286774 0.10424635 0.12273077 -0.07434797
000330 00 1e 86 bd d6 8b 1d 3d 22 ff c2 3b e2 46 06 3d
       -0.06548691 0.038463436 0.0059508244 0.032782443
000340 d4 d4 b2 be 45 21 04 be 9a 45 64 bd 07 76 94 be
       -0.34928 -0.12903316 -0.05573044 -0.28996298
000350 1e 86 23 3c b3 1e 29 bd 77 78 3d bc 0a 17 15 3e
       0.0099807065 -0.041289043 -0.011564366 0.1455957
000360 2d 47 06 3d 59 87 a3 bd 43 56 28 be a2 87 0e 3d
       0.032782722 -0.079848 -0.16439156 0.03479732
000370 dc 59 1f bd c0 4a 5c 3d 81 d9 b4 3d a9 90 1d be
       -0.038904056 0.053782225 0.08830548 -0.15387215
000380 3d bd da 3d 46 8e 19 3e 75 20 db be 09 de 1f be
       0.106806256 0.1499568 -0.427982 -0.15612043
000390 55 6f ab bd 24 d3 a6 bd ef cf 53 3d 41 6b 67 bb
       -0.08370844 -0.08145741 0.051711973 -0.003531173
0003a0 9d 57 da bb 65 32 b6 3d 4e 2b a5 bd 70 55 aa be
       -0.0066632763 0.08896331 -0.080649 -0.3326831
0003b0 45 72 39 3d 1c 91 e5 3d 2b e4 99 3d a2 73 b4 3d
       0.04527499 0.11209318 0.07514223 0.08811118
0003c0 97 70 87 bd 16 90 e0 3d 86 d5 cd be a1 e9 d8 be
       -0.06613272 0.10964982 -0.40201968 -0.42365745
0003d0 58 6b 06 be 22 a2 50 3d ae b9 37 be af 5c 93 b9
       -0.13126886 0.050935872 -0.17941925 -0.0002810708
0003e0 d8 b1 2c 3d 70 72 dc 3b da 37 b7 bd 05 d9 f7 bd
       0.042161793 0.006727509 -0.089462 -0.1210194
0003f0 c6 e2 33 be 65 b7 09 3c d7 df 0e be 3a 86 3b be
       -0.17566976 0.008405541 -0.13952576 -0.18312922

xyz_encoding_2.0.bias f4 [128]
000000 66 c3 96 bd 9a d0 85 bd 7d 66 25 bd 84 ee 4b 3b
       -0.07361488 -0.06533928 -0.040380944 0.0031117508
000010 7c 59 1a be a5 19 23 bc 59 f3 8b 3d ab 7f 90 bc
       -0.15073198 -0.009954845 0.06833524 -0.017639002
000020 0e fe b8 3d f1 c0 c8 3d f7 03 aa bd 01 9e 16 bd
       0.09032832 0.09802426 -0.083015375 -0.036771778
000030 37 ad d9 3c 54 86 a3 3c b4 8c 4b 3d ce 98 3f 3d
       0.026571853 0.019961514 0.04969473 0.046776585
000040 b2 3a da 3d d6 15 52 bd 41 78 0f 3d 55 2f 96 bd
       0.106557265 -0.051290356 0.035026792 -0.073332466
000050 6c a2 9e 3d 75 fc 3e bc b8 1e 49 3d bd 5b be 3b
       0.07745823 -0.01165687 0.04910156 0.005809276
000060 f1 55 ab 3c 6e 3f 16 bb 97 81 8b bd de 25 19 3d
       0.020915003 -0.002292599 -0.06811827 0.03738963
000070 5a a4 70 bd 74 82 15 3c 8d 85 7f 3d cf 9a a3 bb
       -0.058750488 0.009125341 0.062383223 -0.00499282
000080 75 d6 1d 3c 8a 09 0f be 0f 59 bf bd ae 9b 18 be
       0.00963365 -0.13968483 -0.093431585 -0.14903137
000090 2f 08 c8 ba ba f5 3b bd 78 60 8c bd 38 ef f0 bc
       -0.0015261228 -0.04588864 -0.068543375 -0.029410943
0000a0 22 5b cb 3b 70 ac 0b bd 1c 4c ab bb 6e 06 10 bd
       0.0062059322 -0.034099996 -0.005227579 -0.03516238
0000b0 4e 94 50 3d a3 28 7c bc df ae 73 3d a9 00 ec 3b
       0.050922684 -0.015390548 0.059492942 0.007202227
0000c0 43 63 42 3d e4 f8 86 3d 4f 4f 55 3c de 90 4a bc
       0.047457945 0.06590441 0.013019397 -0.012363641
0000d0 3a 22 c9 bd 95 a8 61 3d e2 56 9e bd 2b ef 7a 3c
       -0.09820981 0.055092413 -0.07731415 0.015315811
0000e0 40 e4 73 bc 69 cc b2 bd 77 aa ed 3c e6 db d2 bd
       -0.014885962 -0.087303944 0.029011948 -0.102958485
0000f0 68 15 6a bc 10 ae be bc 03 59 13 3b e5 61 83 bd
       -0.01428733 -0.023276359 0.0022483475 -0.06415156
000100 7e 69 60 bd c3 50 94 3d 88 ad a0 3d 8d 0f a5 3d
       -0.054788105 0.072419666 0.078455985 0.08059607
000110 1d 02 bf bd 26 a9 6c bd 45 da 26 bd f4 02 a2 bd
       -0.09326575 -0.0577785 -0.0407355 -0.079107195
000120 10 7a e6 bd ee 6e 20 bd 37 e5 2a 3d fb 10 f5 3c
       -0.1125375 -0.03916829 0.041722503 0.029915323
000130 5c 9c 5a bd 80 66 db 3c 72 27 22 bd ef b0 5b 3d
       -0.053371772 0.026782274 -0.0395884 0.053635534
000140 03 94 84 3c 30 4a 01 3d 07 f7 ba bb b8 34 fb 3c
       0.016183859 0.03156489 -0.0057057175 0.030664787
000150 1e 9f c0 bc 3d 2b d7 3d d9 a9 93 bd 81 e6 a7 bd
       -0.023513373 0.10506294 -0.0721013 -0.08198262
000160 90 3c e2 3d 13 50 e9 3d 88 33 9c bd 7e 5c f5 3c
       0.11046708 0.11392226 -0.07627016 0.02995133
000170 d7 45 94 3d d3 65 53 bd d8 9f 78 bd e7 f1 cd bd
       0.072398834 -0.05161078 -0.060699314 -0.10055905
000180 88 80 98 bd 6f 09 8f bd 83 e8 f3 bd a0 53 05 be
       -0.074463904 -0.06984221 -0.119095825 -0.13020182
000190 d0 4a fb 3c da 1a a9 3b 09 9a 17 3d 1d 47 ec b9
       0.030675322 0.0051606717 0.037012134 -0.0004506641
0001a0 7a d0 d4 bc 79 32 cc bd 47 87 0c bc fc 33 cd 3d
       -0.025978316 -0.099705644 -0.0085771745 0.10019681
0001b0 c9 36 b9 bc 10 db e5 bd ce 58 24 bd 80 ea 04 b9
       -0.022609131 -0.112234235 -0.040123753 -0.00012675859
0001c0 76 34 cc bc 08 e6 83 3c 06 1a 98 bd e4 27 01 3c
       -0.02492736 0.016100898 -0.074268386 0.007883046
0001d0 d5 b9 59 bd 6e 9b b8 bc 61 0f 47 3d 42 54 d7 bc
       -0.05315574 -0.022535052 0.04859865 -0.026285294
0001e0 43 05 97 bd 69 4a 90 bd 4e 63 04 3d 67 f0 cd bd
       -0.073740505 -0.070454426 0.032321267 -0.10055619
0001f0 46 87 fa bc 9a ac 8c 3d 43 d1 99 bd e0 b3 a7 3d
       -0.030582082 0.06868859 -0.07510617 0.08188605

xyz_encoding_3.0.weight f4 [128, 128]
000000 80 b9 26 be 6f e3 e1 bd 04 be c9 bd 70 38 12 3e
       -0.162817 -0.11029708 -0.09850696 0.14279342
000010 58 ab b5 3d ea ac 07 3e c1 16 95 3b f8 a5 39 bc
       0.08870572 0.13249555 0.0045498316 -0.011331074
000020 c8 65 be 3d 16 cf 11 3e 35 b2 9b be 67 2d 97 bd
       0.09296757 0.14239153 -0.304094 -0.07381707
000030 76 b1 08 bf c6 c8 40 3d 5c 0c 76 be 0a 03 f7 3d
       -0.53395784 0.047066472 -0.24028152 0.120611265
000040 ab 3f bb 3d 92 b4 97 3d 6b 15 78 3d 81 d7 fc bc
       0.09143003 0.07407488 0.0605673 -0.030864479
000050 ee 65 a1 3d ad 47 65 be f7 ec 89 be cb 23 6a be
       0.0788077 -0.22390623 -0.26938602 -0.22865216
000060 0b 73 e5 bc 8a 6e 49 3e d0 cb 78 3d dd b7 e3 bd
       -0.028008958 0.19671074 0.060741246 -0.111190535
000070 2f 7e b5 3b 35 ab 11 3d c4 97 26 be 88 90 b7 be
       0.005538724 0.035563666 -0.16268831 -0.35852456
000080 99 94 24 3d 71 4b ae bc 29 c4 dc bc de cd 99 3d
       0.040180776 -0.021276208 -0.026949005 0.07509969
000090 54 d0 fe 3a 66 b0 3e 3e 90 a5 1c bd ef 10 aa be
       0.0019440749 0.18621978 -0.03824383 -0.33216044
0000a0 2b b1 0d be 19 7b 53 3c 3e 80 ca bd 87 99 f8 bd
       -0.13837115 0.012907767 -0.098877415 -0.12138658
0000b0 ec 14 24 3d 7e c4 05 3e 62 f6 a8 be f0 73 13 3e
       0.040059015 0.13063237 -0.33000475 0.14399695
0000c0 54 d5 87 3d ab ff 2e 3e dc e9 44 bc 32 03 8e 3e
       0.06632486 0.17089717 -0.012018647 0.27736813
0000d0 6e b1 a1 bd be ca 09 3e 77 ca fd 3c 29 e9 13 be
       -0.0789517 0.13456246 0.030980332 -0.14444412
0000e0 b0 83 f6 bd 8b b8 7f bd ee d9 68 3d 55 29 1f bd
       -0.12036836 -0.062431853 0.05684846 -0.038857777
0000f0 4c d7 dd be 61 2b 0b 3e e9 a6 84 3d f1 01 73 bd
       -0.4332832 0.13590766 0.06477148 -0.059328023
000100 04 d6 9e 3d 2d 50 41 3d 4a fe 3c 3e 57 7e 38 3d
       0.07755664 0.047195602 0.18456379 0.045042362
000110 ff 76 bb be 9d ae 1e be 70 0a 95 be 61 ba 9f bd
       -0.36614224 -0.15496297 -0.29109526 -0.07799221
000120 0e ab 77 bd 4a c8 06 3e 14 d3 38 3e f4 aa 2a 3c
       -0.060465865 0.13162342 0.1804927 0.010416735
000130 eb ee fa 3d 97 46 17 be c9 8d 0e be d5 b1 a1 3e
       0.12252601 -0.14773022 -0.13921274 0.31580988
000140 3f 62 0a bf 03 31 2d be 99 ea cd 3d 85 b7 c4 be
       -0.5405616 -0.16913228 0.100545116 -0.38421264
000150 c8 76 34 3d 61 f9 6e 3e aa f3 4b 3c e3 bb c3 bc
       0.04405859 0.23337318 0.012448231 -0.023893302
000160 9e b4 43 be 5f 1c 59 be e6 cd b7 3d 6d 0d 62 bd
       -0.19111869 -0.21202229 0.08974819 -0.055188585
000170 25 c0 d8 3b a7 21 97 bd 9f eb f6 3d 6f 56 d5 be
       0.0066147023 -0.073794656 0.1205666 -0.41667506
000180 9f e3 be 3d 30 57 a2 ba 0b 6e 54 be 76 f0 83 3d
       0.09320759 -0.0012385603 -0.20745103 0.06442349
000190 1e 7f 90 be 76 e1 cf be 5a a2 b9 3d 06 5d 1b bf
       -0.28221983 -0.406017 0.09064169 -0.6068882
0001a0 85 08 1b 3e 7f 2e 68 bd bc 98 bc be 4f 3c dc ba
       0.15139969 -0.056684967 -0.36835277 -0.0016802641
0001b0 f2 65 d7 bd 90 f6 20 bd 93 36 7a be d7 17 4e bd
       -0.105174914 -0.03929764 -0.24434881 -0.050315704
0001c0 9b 30 ee be ea 3f a8 bd e1 d3 49 3d a8 6b 99 be
       -0.46521458 -0.08215316 0.04927433 -0.29964948
0001d0 46 84 51 3e 62 a6 5f 3d e8 21 28 be 0b fe 59 bd
       0.20460615 0.054602034 -0.16419184 -0.05322079
0001e0 80 91 4e be 1e 27 91 3d 7a ed 1a be 47 d6 00 3e
       -0.20172691 0.07087539 -0.15129653 0.1258174
0001f0 1f cc fc be c1 dd 2a bd fe cb 10 be fc f6 b7 bd
       -0.49374482 -0.041715387 -0.14140317 -0.089826554
000200 72 fb 63 3d a5 a9 08 3e 36 c1 48 3d 21 ee 22 3d
       0.05565972 0.13345964 0.049012385 0.03977788
000210 c4 72 cc bd 95 c5 96 3d 14 ec 52 3d 9e 5d 87 3d
       -0.09982827 0.073619045 0.051494673 0.06609653
000220 a1 9e 68 be 2f 0e 34 3d c5 12 9b bb d4 ea ec 3d
       -0.22716762 0.04395884 -0.004732462 0.115682274
000230 67 43 30 be 5c 39 7b be 2d eb 13 3e ab de d1 3d
       -0.17213212 -0.245336 0.14445181 0.10247549
000240 6d 72 95 bc b8 d1 3a 3d 3e dc b0 3d c6 3c b8 3d
       -0.018243039 0.04561016 0.08635758 0.089959666
000250 5a c1 41 be be b6 e6 bd 8d bd 99 be 6e 7c 4f 3d
       -0.18921414 -0.11265324 -0.30027428 0.050655775
000260 d0 34 9e bc b8 ed 43 be f1 cf ec 3d 0c 3f d5 bd
       -0.019312292 -0.19133651 0.11563099 -0.10412416
000270 4a 38 2d be d1 4d ab bc 73 8e ee bd 39 56 60 3e
       -0.16916004 -0.02091113 -0.11648264 0.21907891
000280 af 6f 81 be 30 cb 5d be 13 0d 69 3e 4a 65 62 be
       -0.2528052 -0.21659541 0.22758894 -0.22108951
000290 ca cf 93 bc 1c 1e f4 3d ed a5 d0 3c ea 94 46 3e
       -0.018043417 0.119198054 0.025469745 0.19392744
0002a0 16 78 2c bd 60 df 2a be 27 82 3b 3e 96 50 b6 bd
       -0.04210671 -0.16686773 0.18311368 -0.08902089
0002b0 11 b4 41 3e de 7c 05 3d d4 45 50 be 48 e7 56 3c
       0.18916346 0.032589786 -0.20339137 0.013116665
0002c0 91 ce 2d 3d 8e 15 ae 3c 60 09 15 3e 89 93 89 bd
       0.042433325 0.021250512 0.14554358 -0.06717593
0002d0 72 42 47 3e cc 67 c7 bc c9 6a 2b be a9 12 90 3d
       0.1945894 -0.024341486 -0.16739954 0.07034809
0002e0 f1 0a aa bc bd 6e 43 be 0e 23 3c bc d5 fb cf bd
       -0.02075717 -0.19085212 -0.011482967 -0.10155455
0002f0 d8 0d fa 3d 1b cd f7 bd de e3 98 3e a4 2a 28 be
       0.12209672 -0.12099668 0.2986135 -0.16422516
000300 8e 83 40 3e 31 63 07 bd c1 99 bd bd 8d a8 6e 3e
       0.18800184 -0.03305358 -0.09257842 0.23306485
000310 bb c0 63 be bf f5 4f 3d 63 11 ba 3d 81 4a 88 bd
       -0.2224149 0.05077147 0.090853475 -0.066548355
000320 02 68 69 3d 6a 27 6c 3e 89 f7 ff 3d 64 69 5a 3e
       0.056983955 0.2306191 0.124983855 0.21329266
000330 ea c1 a9 be a1 1b 59 bc 23 f3 f8 3d ff 3b c8 3d
       -0.33155757 -0.013251216 0.1215575 0.09777068
000340 25 28 53 3e 0a 54 e3 bd 7d fa b6 bd 98 71 fe bd
       0.20620783 -0.111000136 -0.089344956 -0.1242401
000350 c1 31 e5 3d f2 a5 a5 be f3 e8 85 bc f2 74 36 3e
       0.111911304 -0.3235317 -0.01634643 0.17818049
000360 3b f2 86 3d ae 38 92 3c d7 f9 86 be 55 b3 ca 3c
       0.065891705 0.017849293 -0.26362488 0.024743715
000370 3e 31 49 bd eb bd 0a be d2 e7 dd 3d 97 7b 89 be
       -0.049119227 -0.1354901 0.10835232 -0.26852104
000380 62 9d 01 3c a1 01 04 3d be 0d a5 bd 57 82 4c 3e
       0.007911058 0.032228116 -0.08059262 0.19971596
000390 14 90 95 be 14 0e b0 bd 97 5d 49 bd 3e 54 7f bd
       -0.29211485 -0.08596435 -0.04916152 -0.0623362
0003a0 f0 bd aa 3b 68 06 6c be 6e ce 1f 3e 11 bd bb bd
       0.0052106306 -0.23049319 0.1560609 -0.09166921
0003b0 c7 f4 aa be f9 df 94 3d 29 09 eb 3d 1e e1 2d 3e
       -0.33389875 0.07269282 0.114763565 0.16980407
0003c0 dd e7 1a be aa 6c 53 be 28 f5 48 3e 81 54 1a 3d
       -0.15127511 -0.20646921 0.1962477 0.037678245
0003d0 94 5e ee 3d 8a 05 12 3e 4a 7a e2 bd fb 9c c1 3c
       0.11639133 0.14259925 -0.11058481 0.023634424
0003e0 83 af 76 bd d0 33 23 3e 69 d4 e7 bd 1b 76 de 3d
       -0.060225975 0.15937734 -0.11319811 0.108623706
0003f0 4a aa ad be 81 26 6e 3d 09 00 5e 3d 50 c4 79 3d
       -0.33918983 0.05814219 0.054199252 0.060978234

xyz_encoding_3.0.bias f4 [128]
000000 7a 24 38 3d c0 e0 d7 3b 46 49 99 bd 86 76 4c bd
       0.04495666 0.0065880716 -0.07484679 -0.04991772
000010 6c 7b b5 bd a7 d5 ae bd 19 3c 8d bc d5 74 78 bc
       -0.088614315 -0.08536845 -0.01724057 -0.015164574
000020 c6 a9 1b 3c 16 b5 ca bd 97 22 be bb dd 8f 41 bd
       0.009500926 -0.09897821 -0.0058024633 -0.04725634
000030 d0 7b 84 bd 7e ac 86 3d dc 8e b0 3c 67 4c 8a 3d
       -0.06468928 0.06575869 0.021552496 0.06752854
000040 6d e1 78 3d ba 88 36 bd e4 fa bd bd bc e3 9b bd
       0.060761858 -0.044563986 -0.09276369 -0.07611796
000050 90 2e 81 bd a3 58 a6 bd 10 d9 a9 bd 4e c2 9b 3d
       -0.06307709 -0.08122375 -0.082933545 0.0760542
000060 e9 f3 87 bd 1c 79 82 bd 28 87 c2 3d 22 e9 2c bc
       -0.06638319 -0.06370756 0.09498435 -0.01055363
000070 b0 68 0a 3d 1a 2b 42 bd 80 55 b3 bd c6 60 7e 3c
       0.033791244 -0.047404386 -0.08756542 0.015526002
000080 98 70 b3 ba 10 01 a1 3d ff ec 4f bd fb 01 09 3e
       -0.0013690172 0.07861531 -0.050763126 0.13379662
000090 99 12 24 bd df 44 33 bb d5 b9 b3 3c 9b bb d1 bc
       -0.0400568 -0.0027354283 0.021939198 -0.025602153
0000a0 b7 b6 08 bd b3 0c 1b bc f9 9f d3 bd b0 34 30 be
       -0.033377375 -0.009463477 -0.10333247 -0.17207599
0000b0 b0 9a cd bc bd ce 61 bc f8 c0 9d bd 17 df 9a 3d
       -0.025098175 -0.0137822 -0.077028215 0.07562082
0000c0 ec cc 34 bd fc af 96 bc 49 14 3e 3d 65 cc e4 3d
       -0.04414074 -0.018394463 0.046406064 0.11171798
0000d0 4b 34 c1 bc c3 7b b9 3d 55 4c 99 bd e7 e3 80 bd
       -0.023584506 0.09056809 -0.07485262 -0.06293469
0000e0 e2 70 1a bc 0d 89 cc 3b a2 38 9a 3c 96 d1 81 bd
       -0.009426327 0.0062419237 0.018825833 -0.063388035
0000f0 c3 47 b0 bd 60 b5 4d 3d d3 1f 23 be 4b 10 ab bd
       -0.086074375 0.0502218 -0.15930109 -0.08352717
000100 56 39 a4 3d 19 36 d5 3d d3 c5 af bd d1 27 a4 bd
       0.080187485 0.10410709 -0.08582654 -0.08015407
000110 c4 37 9a 3d 24 d3 81 3d b1 80 4f 39 c6 28 e1 3c
       0.07530168 0.063391 0.00019789 0.027485263
000120 3d b0 d9 bd 21 a5 aa bd d6 90 38 bd 3a 58 e9 bd
       -0.10629318 -0.08332277 -0.04506 -0.11393781
000130 ea 10 3b bd 72 45 6a 3d fd 3e 1d 3c 71 aa b5 bd
       -0.045670427 0.057195134 0.009597537 -0.088704
000140 ff ba 33 3d 3e 1d 52 3d 70 e0 4e bd 39 0a 8c bc
       0.043879505 0.05129742 -0.05050701 -0.017094718
000150 7f d9 4f 3d 14 c3 bf 3d af 30 bb 3d 9f 8e 1b 3d
       0.05074453 0.0936338 0.09140145 0.03797781
000160 02 5e c7 3d b4 6d 6c 3c 92 37 be bd 5e a1 5c bd
       0.097347274 0.014430452 -0.09287943 -0.05386483
000170 9f 4b ba bd 3c eb 78 3d 4b 1e ba bd 61 d7 37 3c
       -0.09096455 0.060771212 -0.09087809 0.011220784
000180 8c fb 53 bc 9f 64 50 bd 98 8f e7 bc b5 7c a2 3d
       -0.012938391 -0.05087721 -0.028266713 0.07933942
000190 9f c9 1a 3d 10 61 47 bd d7 af 89 bd ce 22 22 bc
       0.037789937 -0.04867655 -0.06722992 -0.009895993
0001a0 27 24 5a bd d5 97 02 3e c7 fd 94 bd e9 fd a0 bd
       -0.053257134 0.12753232 -0.07274967 -0.078609295
0001b0 fa fa c0 3d e2 41 a1 3d 6c 6c 8b 3d 20 cd 00 bd
       0.0942287 0.07873894 0.06807789 -0.031445622
0001c0 1e 06 a8 3d 77 d1 f6 bd e6 8b 50 bd 33 cd 89 bb
       0.08204292 -0.12051671 -0.050914668 -0.00420537
0001d0 62 9f b5 bc ad f7 b0 bd fd b6 0c bd 62 9d 97 3d
       -0.022170726 -0.086409904 -0.0343542 0.07403065
0001e0 c6 d0 cf 3d 50 72 38 3c 99 c4 b3 3d 63 40 97 bb
       0.10147242 0.011257723 0.087777324 -0.00461583
0001f0 f2 66 34 3d 96 88 04 3d 44 d7 90 bb 59 00 e6 bd
       0.04404349 0.03235682 -0.004420193 -0.11230535

xyz_encoding_4.0.weight f4 [128, 128]
000000 ec 78 35 3e d1 e0 8b bd ee 9a d8 bc 35 ea 1b be
       0.1772191 -0.0682999 -0.026441064 -0.15226062
000010 d0 9f f0 3d 07 6d c5 ba d8 e5 d0 bd 4c 56 62 3d
       0.11749232 -0.00150624 -0.10200089 0.05525808
000020 b1 c1 81 bc ff a0 d7 bd e2 68 33 3d bd 5c 84 3d
       -0.01583943 -0.105287544 0.043801196 0.06463001
000030 3c b1 11 be 6b df 1c 3d eb 13 72 be ff ab 4a be
       -0.14227766 0.038299005 -0.2364041 -0.19792174
000040 30 91 0f 3d b6 c2 97 bd 87 8d ab 3d 08 0f 1c bb
       0.03505057 -0.07410185 0.083766036 -0.002381267
000050 4f 11 31 3b b3 9a 5e 3e 24 18 55 be 1a 4f 5e 3d
       0.0027018373 0.217387 -0.2080999 0.054274656
000060 c2 e2 b8 bd 6b 12 89 bd ea 9c 27 3e 3c ca 71 bd
       -0.090276256 -0.06692966 0.16368452 -0.059030756
000070 88 94 f4 3b d8 81 03 be b8 3b da 3c 14 4c 8b 3d
       0.0074639954 -0.128425 0.026639804 0.0680162
000080 df f2 c8 be cc ba c9 3d e3 c5 f4 3d 2d 48 e6 bd
       -0.39247796 0.09850082 0.119518064 -0.11244235
000090 03 e8 59 3e 5f 15 9b be fb 14 fc 3b bc bc 1b be
       0.21279912 -0.30289742 0.0076929308 -0.15208715
0000a0 d4 e2 cc 3d 2d 47 04 be 83 44 87 3e 01 c5 29 3e
       0.100042015 -0.12917776 0.26419458 0.16579057
0000b0 70 ed 8d bc 68 f3 ce 3d 31 61 1b 3e c9 a9 c9 bd
       -0.017325133 0.1010502 0.15173794 -0.09846837
0000c0 4b 19 da 3d 87 cb 54 be 24 e0 13 3d 62 8c 0e 3e
       0.106493555 -0.20780765 0.03610243 0.1392074
0000d0 8c 3d 85 3d 42 59 72 bd d4 ba 8d bd 26 ec 02 be
       0.0650588 -0.059167154 -0.069204 -0.12785396
0000e0 b9 b1 6e be d3 99 23 be f1 fc b1 bd a8 0c 13 3e
       -0.23309983 -0.15976648 -0.08690823 0.14360297
0000f0 2e 51 51 be 9a bc eb b8 1a ec 4a 3e 73 1e 92 bd
       -0.20441124 -0.00011240803 0.19816628 -0.07134714
000100 0f 50 8a bd 53 4e c4 3d 10 74 0f bd 3f d0 aa 3c
       -0.06753551 0.09585252 -0.035022795 0.020851253
000110 fd f0 70 bb de fa 94 bd 08 72 6a 3e 27 c0 f0 3d
       -0.0036764734 -0.072744116 0.22895062 0.117554
000120 80 27 c2 bd c4 ed 43 3d f7 86 d8 3c 01 0f a0 3d
       -0.0948019 0.047834173 0.026431544 0.07815362
000130 29 4e a1 3c d6 73 05 3d fb 7f c8 3d 21 e6 65 be
       0.01969059 0.032581173 0.09790035 -0.22451068
000140 e1 ab ef bc 5e 62 96 be 5b 18 9a bd bc d7 15 bd
       -0.029256763 -0.29371923 -0.07524177 -0.036582693
000150 5a 3e 0f be d5 3e 0a be c9 0f 12 3c 63 6e 26 be
       -0.13988629 -0.13500531 0.008914896 -0.16253047
000160 a4 ac 01 3d 45 7a 37 be 90 ef b9 3e cd ba b5 bc
       0.031658784 -0.17917736 0.36315584 -0.0221838
000170 88 b5 3d be e9 97 cd 3d 63 b4 a6 bd 93 72 37 be
       -0.1852628 0.1003874 -0.08139875 -0.179148
000180 66 d9 90 be b2 d2 57 3d af 94 39 3e 65 a5 75 be
       -0.28290862 0.05269117 0.18123125 -0.23988874
000190 ef c8 0d be 83 4c 2c be 8c 3e 2e 3e 60 db c4 3d
       -0.13846181 -0.16826062 0.17016047 0.09612155
0001a0 57 d6 2b be 4e f8 bb 3c 2a 93 be bd 13 25 00 3e
       -0.16780983 0.02294555 -0.09305413 0.12514143
0001b0 bd 49 41 bc 26 f9 c8 3d c7 75 0c be 0e 76 81 bd
       -0.011797366 0.09813146 -0.13716803 -0.06321345
0001c0 04 b5 e2 3d 97 a3 aa bc 02 33 5a be f1 c8 30 bd
       0.11069682 -0.020829959 -0.2130852 -0.043160383
0001d0 c1 f5 b4 bd d5 1a 66 be ca df 18 be 0e b2 d0 bc
       -0.08835936 -0.22471173 -0.14929119 -0.025475528
0001e0 8f 9b f6 3c bf 56 84 be ab ec 2b be a0 3b ea 3d
       0.030103473 -0.25847432 -0.167895 0.11437154
0001f0 11 d0 40 be 82 77 e1 bd a8 bc e3 3d fa d4 49 be
       -0.18829371 -0.110091224 0.11119968 -0.1971015
000200 cb 70 72 be c0 48 74 3e 45 0d 0d be b4 28 0e be
       -0.2367584 0.23855877 -0.13774593 -0.13882715
000210 2e d3 33 3e 89 66 4b bd b6 17 3a 3e 60 2b 05 3e
       0.17561027 -0.049658332 0.18173108 0.13004827
000220 0f ed 43 3e dd 38 98 bd ba 82 8d bd ec 55 a1 3e
       0.191334 -0.07432721 -0.069097 0.31510866
000230 24 da c5 3d b4 6e e4 bd dc e2 0d 3e d2 d0 fc bb
       0.09660748 -0.111539274 0.13856071 -0.007715323
000240 18 87 6f 3e 68 59 4b 3c 4d 75 a8 3d 8c 14 9f be
       0.23391378 0.012411453 0.08225498 -0.31070364
000250 ce d3 64 3e e2 b1 02 bf 2f 1a 93 be 30 e9 99 be
       0.22346422 -0.5105268 -0.28730914 -0.3006072
000260 6a fc 66 bc d1 ea db be be 79 4d 3d 82 f3 85 bd
       -0.014098266 -0.42952588 0.05016493 -0.06540586
000270 25 74 7e bd 0d b4 90 3d 8f 74 40 3d bf 15 87 be
       -0.062122483 0.07065592 0.04698616 -0.26383778
000280 9e 02 14 bd 66 c3 e3 bd 88 06 ed 3c 42 c3 78 3d
       -0.03613531 -0.11121254 0.028933778 0.060733087
000290 e8 a2 27 3c f7 df 03 3e 9e 05 36 3e 9d 40 a4 3d
       0.010231711 0.12878405 0.1777558 0.080201365
0002a0 13 05 af bd b4 b3 38 3e 1d 69 ef bd ff 86 52 be
       -0.0854589 0.18037301 -0.11689971 -0.2055931
0002b0 7e 7a 6b bc bb 98 c0 bd fa c6 24 3e 0a 61 3d 3e
       -0.014372466 -0.09404131 0.16091529 0.18494049
0002c0 64 80 c3 bc bc c5 6c 3d 75 2b b6 bd 85 54 82 bd
       -0.023864932 0.05780576 -0.088950075 -0.06363777
0002d0 e1 19 0a 3e 18 81 5b be fc e8 87 be de 2b 4c bd
       0.13486435 -0.21435964 -0.2654494 -0.049846523
0002e0 bb b4 d5 bb 8f 84 cd bb a6 85 2b bd a7 f2 ad be
       -0.006521789 -0.0062719057 -0.041875504 -0.33974192
0002f0 a6 cf e8 be 8d 1c 06 be c3 d4 ff 3d 58 4d bc be
       -0.45470923 -0.13096829 0.12491753 -0.3677776
000300 4d dd 01 3d c8 0f a4 bd e5 36 a8 3d ae cd 8f be
       0.03170519 -0.080108225 0.08213595 -0.2808661
000310 4e e2 65 bd 81 2d f3 bd 9c 3d ab bd 1e a1 fb be
       -0.056124024 -0.118739136 -0.083613604 -0.4914636
000320 8b fb 2c 3e 38 4e 2d bc d5 f4 2a 3d f5 98 0a 3c
       0.16892831 -0.010577731 0.041737396 0.008459319
000330 68 ff 89 3e 22 ab 26 3e 8e 5d ab be a8 4a 9f be
       0.26952672 0.1627622 -0.33469814 -0.31111646
000340 30 0d 92 bd 56 f6 52 3e 8c cf 2a 3e d8 b1 81 3d
       -0.071314216 0.20601782 0.16680735 0.06332749
000350 9c f1 94 3d a4 41 0c bc 77 b7 e7 3c 5e 93 f7 3c
       0.07272646 -0.008560572 0.028285725 0.030221637
000360 36 2e 26 3d 7a e4 36 3e 4b 3f 9e bd 91 5b 46 be
       0.040571414 0.17860594 -0.07726916 -0.19370867
000370 5f fb 23 be fc 3b 52 3e 14 56 0c be 96 c9 16 3d
       -0.16013859 0.20530695 -0.13704711 0.03681334
000380 2c fe 84 3e d0 7d 0b bd 85 29 b2 3d d5 e8 97 be
       0.25975168 -0.03405553 0.086993255 -0.29669824
000390 15 8f 35 be 3c 01 a8 be 10 e8 9d 3e c6 2e 9a 3d
       -0.17730363 -0.32813442 0.30841112 0.075284526
0003a0 8f 2b 4c be 4b 79 6b bd de a9 e4 bd e0 97 28 be
       -0.19938491 -0.05748872 -0.11165212 -0.16464186
0003b0 3c f9 94 be 51 69 46 3b 52 82 49 bd 54 f9 d6 be
       -0.290964 0.0030275176 -0.04919655 -0.41987097
0003c0 7f 83 84 3c 42 8c ab 3c 60 3e 41 3c 25 91 b4 bd
       0.016175983 0.020940904 0.0117946565 -0.088167466
0003d0 4b bf 78 bc 60 fd a8 bd 5e 49 c7 3d 9c 4b 63 3e
       -0.015182327 -0.082514524 0.097307906 0.22196811
0003e0 49 f3 22 bd 2c 90 fc 3c fc 01 99 bd d8 ee 95 3d
       -0.039782796 0.030830465 -0.074710816 0.073209465
0003f0 1e 65 52 3e db e3 cf 3c af ea 9f 3e 27 38 88 bc
       0.20546386 0.025377205 0.31233737 -0.016628338

xyz_encoding_4.0.bias f4 [128]
000000 db 36 bd 3d a5 8b bd 3d 36 e7 cd 3a 82 c5 88 3d
       0.092389785 0.09255151 0.0015709165 0.066782966
000010 a6 ec 39 be 2f ee 2a 3d bc 19 45 3d a9 c3 60 3c
       -0.1815668 0.041731056 0.048120245 0.013718524
000020 d9 fc 98 bc f8 2d b3 3d b1 c8 b2 3d e9 e1 1d 3d
       -0.018675255 0.08749002 0.08729685 0.038545523
000030 5c 5a 8a bd f0 e9 8f bd ca d3 22 3c 64 cc 6c 3d
       -0.06755516 -0.07027042 0.00993819 0.05781211
000040 d0 03 a7 3c e1 2e 69 bc 24 2d b6 3b 78 c6 4c bd
       0.02038756 -0.014232368 0.0055595804 -0.049993962
000050 5f 06 89 bc b6 6c 67 bd eb 00 7b bc 9e 7e f7 3c
       -0.01672667 -0.05650016 -0.015320043 0.030211743
000060 4a 80 a2 3d 3a 5b 44 bd 55 2c bb bd f3 3c bf 3d
       0.079346254 -0.047938563 -0.09139315 0.09337797
000070 fd 80 cb bd ef f0 e5 3d ac bf a4 bb fe e5 60 3d
       -0.09936712 0.11227595 -0.005027732 0.054906838
000080 a8 bb 8d 3d ac aa 0c bb fa be ef 3d d7 ea 07 bd
       0.06920558 -0.0021464033 0.11706348 -0.033182945
000090 a4 cb e0 3d 57 77 99 3d 12 ac 0f 3d 7d ed 83 3d
       0.10976341 0.074934654 0.03507621 0.06441782
0000a0 24 8a 7b 3d 56 4b 2f be 48 31 11 3d cf cd 95 3d
       0.061411038 -0.17118582 0.03544739 0.073146455
0000b0 54 bb 09 3e be 35 9f bd dd bd aa 3c 93 7c 98 bd
       0.13450366 -0.077739224 0.020842487 -0.07445636
0000c0 5b d4 cb bd 1b e6 b3 bd f6 d2 f2 bb bc 83 ab bb
       -0.09952613 -0.087841235 -0.0074104024 -0.00523421
0000d0 af 8e c3 3d 4d 09 83 3c 16 9e 15 bd 53 88 b1 bd
       0.09548699 0.015995646 -0.036527716 -0.0866858
0000e0 f3 94 84 3c 7b 43 97 3d 52 84 f2 3d 11 78 27 3d
       0.016184306 0.07385918 0.11841644 0.04088599
0000f0 56 91 13 3e 26 20 ec 3d d2 46 3b 3d c7 ca d3 bc
       0.1441091 0.11529569 0.045721836 -0.025853528
000100 0c 22 02 be 22 03 c1 3d 20 c8 57 3d 3d 86 a6 3d
       -0.127083 0.09424426 0.05268109 0.08131073
000110 6f 53 98 3d e7 2f ef bd 34 75 00 3e 12 41 19 bd
       0.07437789 -0.116790585 0.1254471 -0.03741557
000120 76 06 92 bc 5a dd 8f bd 1b 94 d6 bc c1 85 57 3d
       -0.017825346 -0.07024641 -0.026193669 0.052617792
000130 7d 03 92 bc 88 c3 87 3d 7d f4 df bc d8 02 a1 3d
       -0.017823929 0.066290915 -0.02733826 0.078618705
000140 35 8e a0 3d 59 20 4d bd 23 63 59 bd 53 c0 38 3d
       0.07839624 -0.050079677 -0.05307306 0.04510529
000150 70 12 24 bc f5 c5 89 bc 69 b5 15 3d f4 65 8f 3d
       -0.0100141615 -0.016818026 0.03654996 0.07001868
000160 95 2e c3 3d 0a c8 01 3e 18 8d f4 3d 2d 67 1d 3d
       0.09530369 0.12673965 0.11940974 0.038428474
000170 39 28 c6 3d a1 14 c3 3d 9a 08 37 3d d3 a9 09 3e
       0.096756406 0.09525419 0.044685937 0.13443689
000180 b0 9f cd 3d a2 be 0a 3e 73 4c b6 bc 96 ab fd bc
       0.100402236 0.13549283 -0.02225325 -0.030965608
000190 a0 fd ed 3d 3d 54 23 3d 74 94 b6 3d 72 52 db 3c
       0.11620641 0.039875258 0.08915034 0.026772711
0001a0 bd 92 1a 3c af 21 1d bd bc b8 82 3d ab 0f 87 be
       0.009434399 -0.0383622 0.063828915 -0.2637914
0001b0 d3 0a 1d bd 82 d9 8b 3d b5 ef 04 bd 53 c8 66 3d
       -0.0383404 0.06828596 -0.032455165 0.056343388
0001c0 e7 5c e9 bd 13 72 10 3e 7f 2a 23 3e 5c 70 1c bb
       -0.11394673 0.14106016 0.1593418 -0.0023870682
0001d0 b6 a2 5c bd f3 77 9b bc 3f bf 16 3e 33 36 f8 3d
       -0.05386611 -0.018978095 0.14721392 0.12119713
0001e0 dd 8b 2c 3d 83 56 46 3d 8c df 04 be 66 6a a1 bd
       0.04212557 0.048422348 -0.12975901 -0.07881622
0001f0 1f 9a b2 3d 40 56 07 3e b5 b9 a4 bd cd 4c 9c 3d
       0.087208025 0.13216496 -0.08043233 0.07631836

xyz_encoding_5.0.weight f4 [128, 191]
000000 bb 4d ed 3d e3 30 e5 bd e5 cd 97 3d c2 5f ad 3d
       0.115870915 -0.11190965 0.07412318 0.0846553
000010 72 28 a7 bc f9 de 2c 3d 5e 39 b9 bc 1f 48 4f 3d
       -0.020405028 0.04220483 -0.022610363 0.05060589
000020 f3 84 33 bc f3 74 3c bd 20 ff da bd 84 91 7c 3d
       -0.0109569905 -0.04600997 -0.106931925 0.061662212
000030 56 ef 64 bd 87 8a 9b bd 17 94 0e 3d 09 0b bb 3a
       -0.05589231 -0.07594781 0.0348092 0.0014270257
000040 68 0a c0 bd 1b 3f fa 3d 7c a6 23 be 34 0c 78 bd
       -0.09376985 0.12219068 -0.15981477 -0.060558513
000050 29 77 db bc cd b7 c2 3d 68 fb ab 3d c6 24 3e be
       -0.026790218 0.095077135 0.08397561 -0.18568715
000060 b7 72 59 be 9c e7 39 be 94 86 59 be cf c4 07 bd
       -0.21235166 -0.18154758 -0.21242744 -0.033146676
000070 ea c8 68 3e 46 94 04 3e 9e 18 05 bd c2 33 8f be
       0.22732893 0.12947187 -0.03249418 -0.27969176
000080 2e 22 cb bd 7d f3 96 bd 70 3e 7a 3d 4e e0 b9 bd
       -0.09918629 -0.073706605 0.0610947 -0.09075986
000090 33 79 b0 3d 0f 53 f7 bd e2 6d 01 3e 9a 39 f6 3d
       0.08616867 -0.12076389 0.12639573 0.120227054
0000a0 58 72 f5 bd 5a 51 fd bc 66 20 ae bb c4 d7 88 3e
       -0.119847 -0.03092258 -0.005313921 0.26727116
0000b0 aa 21 33 bb 40 02 06 3d e6 02 e3 3c 26 71 bd 3a
       -0.0027333298 0.03271699 0.027711343 0.0014453277
0000c0 27 9a 60 3c ab f2 4b bd d5 d8 c1 ba ca cb e9 3b
       0.013708628 -0.049791973 -0.0014789352 0.0071348893
0000d0 10 32 00 bd bf a2 a1 3a f5 c2 b2 3b 4e 2d 1a bc
       -0.031297743 0.0012331827 0.0054553696 -0.009410216
0000e0 d6 db 33 bb 35 ff 87 bb d8 63 e0 ba f8 3e 15 3b
       -0.0027444265 -0.004150296 -0.00171196 0.0022773128
0000f0 6b c4 3c b8 8c d1 39 3b 03 02 45 3a 13 5a ae be
       -4.500562e-05 0.002835366 0.00075152534 -0.34053096
000100 4f 5b 21 3c a1 0f cb bd 4a c9 35 3d f1 cb 40 bd
       0.00984843 -0.0991509 0.044381417 -0.047069494
000110 f1 ac 37 3e 5b 81 ef 3d 04 81 a4 be c2 a6 8d 3c
       0.17937066 0.116945945 -0.3212968 0.01729143
000120 39 bd b0 bd 41 19 10 3d ed dd 2f 3e d9 75 c8 3d
       -0.08629841 0.035180334 0.17174502 0.09788103
000130 26 e8 4b bd 2a f6 b6 be 12 fe 28 be 23 2c cf 3d
       -0.04978194 -0.35734683 -0.1650317 0.1011584
000140 9b 29 91 be ae 6e 3f 3d a1 52 28 be 48 c4 8f 3c
       -0.28352055 0.04673641 -0.1643777 0.017549649
000150 14 92 9e 3d 0e 75 97 3d 1c f2 66 bd f5 66 a3 bd
       0.07742706 0.07395373 -0.056383237 -0.07978622
000160 cb c2 45 be fd cc 89 be e6 70 b0 bd e0 62 ee 3c
       -0.19312589 -0.26914206 -0.08615284 0.029099882
000170 83 f9 b5 3d b5 91 ea 3d 24 aa 74 3e b1 3a 85 bb
       0.08885481 0.11453573 0.23893028 -0.0040658345
000180 3a e4 1c be cd 14 5a be 5a cb 08 3e 3d 5d af bd
       -0.15321437 -0.21296997 0.13358822 -0.08562706
000190 4e f5 25 3e ea 31 40 3d a2 b6 fc 3d b2 0c 88 3c
       0.16206858 0.0469226 0.12339522 0.016607616
0001a0 60 e3 14 be 1d 15 e4 bd 04 05 0a 3e fb bf 48 bd
       -0.14539862 -0.111368395 0.13478476 -0.04901121
0001b0 ff 69 a0 3d a7 39 4c 3d 22 3c 16 be e8 0e b8 bd
       0.07832717 0.04985967 -0.14671376 -0.08987218
0001c0 81 53 21 bf 3c ae 4c bd 67 59 1e bb 57 bd 07 3d
       -0.6301804 -0.04997085 -0.0024162175 0.033139553
0001d0 5d 29 c3 bb 52 ea 20 be dd 11 9d bd 1a 64 f3 bb
       -0.0059558586 -0.15714386 -0.07669423 -0.0074277045
0001e0 36 2e fa 3c e6 2b c5 3d 67 c9 d7 be 1e 44 50 be
       0.030539613 0.096275136 -0.42145845 -0.20338485
0001f0 a3 dc 82 3e 71 a0 0f bd d3 7c 68 bd 07 39 a7 be
       0.25558957 -0.03506512 -0.056759667 -0.32660696
000200 15 32 90 3c 44 a3 a0 3d 4d 17 3b be a7 a8 3b 3e
       0.017602006 0.078436404 -0.18270607 0.18326055
000210 d6 47 58 bd a3 9b 8e be 87 1d fc bc 57 fa 9d 3d
       -0.052802883 -0.27853116 -0.030775798 0.07713764
000220 db 5f 9c bd af aa 4d be fb c4 c8 bd 2d 52 1b 3d
       -0.076354705 -0.20084642 -0.09803196 0.037920166
000230 8e 05 52 be 80 bd fc 3c 31 fc 7c 3d ac 03 c0 3e
       -0.20509931 0.03085208 0.061763946 0.375028
000240 0a dc d7 bd c1 17 0d be 4a ef 9c be 7f 71 2c be
       -0.10540016 -0.13778593 -0.30651313 -0.1684017
000250 47 8e 0f 3b c7 6d 0e 3d 1c 8a 2f bd 77 96 2f 3e
       0.0021904872 0.03477266 -0.04285632 0.17147242
000260 9f 49 b2 be 79 71 3f 3e 03 60 05 be 65 81 55 bd
       -0.34821793 0.1869563 -0.13024907 -0.052125353
000270 fe d4 d0 3d 6a e2 8b bc e8 e5 6b 3e 76 84 ae bc
       0.10196875 -0.017075736 0.23036921 -0.021303397
000280 96 22 9b bd 9c 6d bb bd e7 aa 18 3e 54 a4 8e bc
       -0.07574956 -0.09151766 0.14908944 -0.017412342
000290 8d 11 92 bd b3 fd 5e bd f3 73 f8 3d 43 e3 e1 3d
       -0.07132254 -0.054441165 0.121314906 0.11029675
0002a0 b8 b1 0a bc a8 dd 0d bd c0 b5 92 3d f6 ec 19 bd
       -0.008465223 -0.034635216 0.07163572 -0.0375795
0002b0 b0 bc a0 bd e3 9d a1 3e cb af 20 3e 90 f8 c0 bd
       -0.07848489 0.3156577 0.1569206 -0.094224095
0002c0 4d 33 b5 3d a4 bd 1c be 31 dc db 3d f4 a5 9c be
       0.088476755 -0.15306717 0.107353576 -0.30595362
0002d0 5a 44 0d 3e 07 43 84 bd 31 4b 96 be 1e a0 aa 3d
       0.13795605 -0.06458097 -0.29354241 0.08331321
0002e0 2c f7 52 3e b1 1d a4 3d be 08 56 3c 31 a6 e8 bd
       0.20602101 0.08013476 0.013063608 -0.113598235
0002f0 91 d9 d5 3d c0 7f fe be 60 47 b7 bd d2 90 ae 3d
       0.10441888 -0.4970684 -0.089491606 0.08523716
000300 cf 6c 1a 3e 56 d7 88 bc e7 89 19 bc bb 4b e3 3d
       0.1508057 -0.016704243 -0.009371257 0.11098429
000310 6e 23 80 bc fe 52 9c 3c b7 f2 50 3c d1 92 b4 bd
       -0.015641894 0.019082543 0.01275318 -0.088170655
000320 91 e4 85 bd e6 6a fe 3c 7d 85 ef 3c 20 7c af 3c
       -0.06537736 0.031056833 0.029238457 0.021421492
000330 aa 3e cd bd 9c 52 fa 3d 3b 51 f3 bd 8f 99 64 3d
       -0.10021718 0.12222788 -0.11880728 0.055810507
000340 39 fe 32 3e 70 ba f6 bd a9 6d e4 bd 6c aa a0 3d
       0.17479791 -0.12047279 -0.111537285 0.078450054
000350 d7 53 05 bd e0 eb 99 3d 0b 44 a6 bc 18 9d 51 be
       -0.03255066 0.07515693 -0.020296117 -0.20470083
000360 60 f8 5b bd c7 99 56 bd 48 48 bc 3d f8 81 3f 3e
       -0.053703666 -0.052392747 0.09193474 0.18701923
000370 9e fc f4 bd 1f 24 0e 3d f7 83 8c bc 4f a3 eb bd
       -0.119622454 0.034702417 -0.01715277 -0.11505758
000380 80 65 82 bd 56 d7 3d bd 91 91 33 3e 9a 5d b5 3d
       -0.06367016 -0.04634794 0.17535998 0.08855744
000390 85 5a a0 bd f8 4b 0b bb 11 df 41 be 2a 16 2d 3b
       -0.07829765 -0.0021254998 -0.1893275 0.0026410916
0003a0 17 88 3c 3e 08 cf 8a bc fe a5 b2 3c a1 b5 01 bc
       0.18411289 -0.016944423 0.021807667 -0.007916839
0003b0 32 84 64 3c 78 7c 06 be f9 9f 97 bc 43 b6 85 bc
       0.013947533 -0.13133419 -0.018508898 -0.01632226
0003c0 bb 2a fd bd 49 41 55 3c 45 40 c0 3b 25 56 33 bc
       -0.12361666 0.0130160535 0.0058670365 -0.010945831
0003d0 4b ef ac 3b 0b 16 1f bc d1 7f 98 bc c1 2e 3f 3c
       0.0052775494 -0.009709845 -0.018615635 0.011668862
0003e0 29 02 2f ba 6d 91 75 bb 59 92 95 3a 9f a1 35 ba
       -0.0006676042 -0.0037470714 0.0011411413 -0.00069286855
0003f0 f9 d1 d3 3a e2 19 41 3b ea 0e 77 bc dc de b7 3d
       0.0016160599 0.002946489 -0.015079239 0.08978054
